…
I0515 19:31:10.125788   577 net.cpp:323] The NetState phase (0) differed from the phase (1) specified by a rule in layer loss3/top-1
I0515 19:31:10.126590   577 net.cpp:52] Initializing net from parameters:
state {
phase: TRAIN
}
layer {
name: "train-data"
type: "Data"
top: "data"
top: "label"
include {
phase: TRAIN
}
transform_param {
mirror: true
crop_size: 224
mean_file: "/opt/DIGITS/digits/jobs/20190515-190236-6094/mean.binaryproto"
}
data_param {
source: "/opt/DIGITS/digits/jobs/20190515-190236-6094/train_db"
batch_size: 32
backend: LMDB
}
}
layer {
name: "conv1/7x7_s2"
type: "Convolution"
bottom: "data"
top: "conv1/7x7_s2"
param {
lr_mult: 1
decay_mult: 1
}
param {
lr_mult: 2
decay_mult: 0
}
convolution_param {
num_output: 64
pad: 3
kernel_size: 7
stride: 2
weight_filler {
type: "xavier"
std: 0.1
}
bias_filler {
type: "constant"
value: 0.2
}
}
}
layer {
name: "conv1/relu_7x7"
type: "ReLU"
bottom: "conv1/7x7_s2"
top: "conv1/7x7_s2"
}
layer {
name: "pool1/3x3_s2"
type: "Pooling"
bottom: "conv1/7x7_s2"
top: "pool1/3x3_s2"
pooling_param {
pool: MAX
kernel_size: 3
stride: 2
}
}
layer {
name: "pool1/norm1"
type: "LRN"
bottom: "pool1/3x3_s2"
top: "pool1/norm1"
lrn_param {
local_size: 5
alpha: 0.0001
beta: 0.75
}
}
layer {
name: "conv2/3x3_reduce"
type: "Convolution"
bottom: "pool1/norm1"
top: "conv2/3x3_reduce"
param {
lr_mult: 1
decay_mult: 1
}
param {
lr_mult: 2
decay_mult: 0
}
convolution_param {
num_output: 64
kernel_size: 1
weight_filler {
type: "xavier"
std: 0.1
}
bias_filler {
type: "constant"
value: 0.2
}
}
}
layer {
name: "conv2/relu_3x3_reduce"
type: "ReLU"
bottom: "conv2/3x3_reduce"
top: "conv2/3x3_reduce"
}
layer {
name: "conv2/3x3"
type: "Convolution"
bottom: "conv2/3x3_reduce"
top: "conv2/3x3"
param {
lr_mult: 1
decay_mult: 1
}
param {
lr_mult: 2
decay_mult: 0
}
convolution_param {
num_output: 192
pad: 1
kernel_size: 3
weight_filler {
type: "xavier"
std: 0.03
}
bias_filler {
type: "constant"
value: 0.2
}
}
}
layer {
name: "conv2/relu_3x3"
type: "ReLU"
bottom: "conv2/3x3"
top: "conv2/3x3"
}
layer {
name: "conv2/norm2"
type: "LRN"
bottom: "conv2/3x3"
top: "conv2/norm2"
lrn_param {
local_size: 5
alpha: 0.0001
beta: 0.75
}
}
layer {
name: "pool2/3x3_s2"
type: "Pooling"
bottom: "conv2/norm2"
top: "pool2/3x3_s2"
pooling_param {
pool: MAX
kernel_size: 3
stride: 2
}
}
layer {
name: "inception_3a/1x1"
type: "Convolution"
bottom: "pool2/3x3_s2"
top: "inception_3a/1x1"
param {
lr_mult: 1
decay_mult: 1
}
param {
lr_mult: 2
decay_mult: 0
}
convolution_param {
num_output: 64
kernel_size: 1
weight_filler {
type: "xavier"
std: 0.03
}
bias_filler {
type: "constant"
value: 0.2
}
}
}
layer {
name: "inception_3a/relu_1x1"
type: "ReLU"
bottom: "inception_3a/1x1"
top: "inception_3a/1x1"
}
layer {
name: "inception_3a/3x3_reduce"
type: "Convolution"
bottom: "pool2/3x3_s2"
top: "inception_3a/3x3_reduce"
param {
lr_mult: 1
decay_mult: 1
}
param {
lr_mult: 2
decay_mult: 0
}
convolution_param {
num_output: 96
kernel_size: 1
weight_filler {
type: "xavier"
std: 0.09
}
bias_filler {
type: "constant"
value: 0.2
}
}
}
layer {
name: "inception_3a/relu_3x3_reduce"
type: "ReLU"
bottom: "inception_3a/3x3_reduce"
top: "inception_3a/3x3_reduce"
}
layer {
name: "inception_3a/3x3"
type: "Convolution"
bottom: "inception_3a/3x3_reduce"
top: "inception_3a/3x3"
param {
lr_mult: 1
decay_mult: 1
}
param {
lr_mult: 2
decay_mult: 0
}
convolution_param {
num_output: 128
pad: 1
kernel_size: 3
weight_filler {
type: "xavier"
std: 0.03
}
bias_filler {
type: "constant"
value: 0.2
}
}
}
layer {
name: "inception_3a/relu_3x3"
type: "ReLU"
bottom: "inception_3a/3x3"
top: "inception_3a/3x3"
}
layer {
name: "inception_3a/5x5_reduce"
type: "Convolution"
bottom: "pool2/3x3_s2"
top: "inception_3a/5x5_reduce"
param {
lr_mult: 1
decay_mult: 1
}
param {
lr_mult: 2
decay_mult: 0
}
convolution_param {
num_output: 16
kernel_size: 1
weight_filler {
type: "xavier"
std: 0.2
}
bias_filler {
type: "constant"
value: 0.2
}
}
}
layer {
name: "inception_3a/relu_5x5_reduce"
type: "ReLU"
bottom: "inception_3a/5x5_reduce"
top: "inception_3a/5x5_reduce"
}
layer {
name: "inception_3a/5x5"
type: "Convolution"
bottom: "inception_3a/5x5_reduce"
top: "inception_3a/5x5"
param {
lr_mult: 1
decay_mult: 1
}
param {
lr_mult: 2
decay_mult: 0
}
convolution_param {
num_output: 32
pad: 2
kernel_size: 5
weight_filler {
type: "xavier"
std: 0.03
}
bias_filler {
type: "constant"
value: 0.2
}
}
}
layer {
name: "inception_3a/relu_5x5"
type: "ReLU"
bottom: "inception_3a/5x5"
top: "inception_3a/5x5"
}
layer {
name: "inception_3a/pool"
type: "Pooling"
bottom: "pool2/3x3_s2"
top: "inception_3a/pool"
pooling_param {
pool: MAX
kernel_size: 3
stride: 1
pad: 1
}
}
layer {
name: "inception_3a/pool_proj"
type: "Convolution"
bottom: "inception_3a/pool"
top: "inception_3a/pool_proj"
param {
lr_mult: 1
decay_mult: 1
}
param {
lr_mult: 2
decay_mult: 0
}
convolution_param {
num_output: 32
kernel_size: 1
weight_filler {
type: "xavier"
std: 0.1
}
bias_filler {
type: "constant"
value: 0.2
}
}
}
layer {
name: "inception_3a/relu_pool_proj"
type: "ReLU"
bottom: "inception_3a/pool_proj"
top: "inception_3a/pool_proj"
}
layer {
name: "inception_3a/output"
type: "Concat"
bottom: "inception_3a/1x1"
bottom: "inception_3a/3x3"
bottom: "inception_3a/5x5"
bottom: "inception_3a/pool_proj"
top: "inception_3a/output"
}
layer {
name: "inception_3b/1x1"
type: "Convolution"
bottom: "inception_3a/output"
top: "inception_3b/1x1"
param {
lr_mult: 1
decay_mult: 1
}
param {
lr_mult: 2
decay_mult: 0
}
convolution_param {
num_output: 128
kernel_size: 1
weight_filler {
type: "xavier"
std: 0.03
}
bias_filler {
type: "constant"
value: 0.2
}
}
}
layer {
name: "inception_3b/relu_1x1"
type: "ReLU"
bottom: "inception_3b/1x1"
top: "inception_3b/1x1"
}
layer {
name: "inception_3b/3x3_reduce"
type: "Convolution"
bottom: "inception_3a/output"
top: "inception_3b/3x3_reduce"
param {
lr_mult: 1
decay_mult: 1
}
param {
lr_mult: 2
decay_mult: 0
}
convolution_param {
num_output: 128
kernel_size: 1
weight_filler {
type: "xavier"
std: 0.09
}
bias_filler {
type: "constant"
value: 0.2
}
}
}
layer {
name: "inception_3b/relu_3x3_reduce"
type: "ReLU"
bottom: "inception_3b/3x3_reduce"
top: "inception_3b/3x3_reduce"
}
layer {
name: "inception_3b/3x3"
type: "Convolution"
bottom: "inception_3b/3x3_reduce"
top: "inception_3b/3x3"
param {
lr_mult: 1
decay_mult: 1
}
param {
lr_mult: 2
decay_mult: 0
}
convolution_param {
num_output: 192
pad: 1
kernel_size: 3
weight_filler {
type: "xavier"
std: 0.03
}
bias_filler {
type: "constant"
value: 0.2
}
}
}
layer {
name: "inception_3b/relu_3x3"
type: "ReLU"
bottom: "inception_3b/3x3"
top: "inception_3b/3x3"
}
layer {
name: "inception_3b/5x5_reduce"
type: "Convolution"
bottom: "inception_3a/output"
top: "inception_3b/5x5_reduce"
param {
lr_mult: 1
decay_mult: 1
}
param {
lr_mult: 2
decay_mult: 0
}
convolution_param {
num_output: 32
kernel_size: 1
weight_filler {
type: "xavier"
std: 0.2
}
bias_filler {
type: "constant"
value: 0.2
}
}
}
layer {
name: "inception_3b/relu_5x5_reduce"
type: "ReLU"
bottom: "inception_3b/5x5_reduce"
top: "inception_3b/5x5_reduce"
}
layer {
name: "inception_3b/5x5"
type: "Convolution"
bottom: "inception_3b/5x5_reduce"
top: "inception_3b/5x5"
param {
lr_mult: 1
decay_mult: 1
}
param {
lr_mult: 2
decay_mult: 0
}
convolution_param {
num_output: 96
pad: 2
kernel_size: 5
weight_filler {
type: "xavier"
std: 0.03
}
bias_filler {
type: "constant"
value: 0.2
}
}
}
layer {
name: "inception_3b/relu_5x5"
type: "ReLU"
bottom: "inception_3b/5x5"
top: "inception_3b/5x5"
}
layer {
name: "inception_3b/pool"
type: "Pooling"
bottom: "inception_3a/output"
top: "inception_3b/pool"
pooling_param {
pool: MAX
kernel_size: 3
stride: 1
pad: 1
}
}
layer {
name: "inception_3b/pool_proj"
type: "Convolution"
bottom: "inception_3b/pool"
top: "inception_3b/pool_proj"
param {
lr_mult: 1
decay_mult: 1
}
param {
lr_mult: 2
decay_mult: 0
}
convolution_param {
num_output: 64
kernel_size: 1
weight_filler {
type: "xavier"
std: 0.1
}
bias_filler {
type: "constant"
value: 0.2
}
}
}
layer {
name: "inception_3b/relu_pool_proj"
type: "ReLU"
bottom: "inception_3b/pool_proj"
top: "inception_3b/pool_proj"
}
layer {
name: "inception_3b/output"
type: "Concat"
bottom: "inception_3b/1x1"
bottom: "inception_3b/3x3"
bottom: "inception_3b/5x5"
bottom: "inception_3b/pool_proj"
top: "inception_3b/output"
}
layer {
name: "pool3/3x3_s2"
type: "Pooling"
bottom: "inception_3b/output"
top: "pool3/3x3_s2"
pooling_param {
pool: MAX
kernel_size: 3
stride: 2
}
}
layer {
name: "inception_4a/1x1"
type: "Convolution"
bottom: "pool3/3x3_s2"
top: "inception_4a/1x1"
param {
lr_mult: 1
decay_mult: 1
}
param {
lr_mult: 2
decay_mult: 0
}
convolution_param {
num_output: 192
kernel_size: 1
weight_filler {
type: "xavier"
std: 0.03
}
bias_filler {
type: "constant"
value: 0.2
}
}
}
layer {
name: "inception_4a/relu_1x1"
type: "ReLU"
bottom: "inception_4a/1x1"
top: "inception_4a/1x1"
}
layer {
name: "inception_4a/3x3_reduce"
type: "Convolution"
bottom: "pool3/3x3_s2"
top: "inception_4a/3x3_reduce"
param {
lr_mult: 1
decay_mult: 1
}
param {
lr_mult: 2
decay_mult: 0
}
convolution_param {
num_output: 96
kernel_size: 1
weight_filler {
type: "xavier"
std: 0.09
}
bias_filler {
type: "constant"
value: 0.2
}
}
}
layer {
name: "inception_4a/relu_3x3_reduce"
type: "ReLU"
bottom: "inception_4a/3x3_reduce"
top: "inception_4a/3x3_reduce"
}
layer {
name: "inception_4a/3x3"
type: "Convolution"
bottom: "inception_4a/3x3_reduce"
top: "inception_4a/3x3"
param {
lr_mult: 1
decay_mult: 1
}
param {
lr_mult: 2
decay_mult: 0
}
convolution_param {
num_output: 208
pad: 1
kernel_size: 3
weight_filler {
type: "xavier"
std: 0.03
}
bias_filler {
type: "constant"
value: 0.2
}
}
}
layer {
name: "inception_4a/relu_3x3"
type: "ReLU"
bottom: "inception_4a/3x3"
top: "inception_4a/3x3"
}
layer {
name: "inception_4a/5x5_reduce"
type: "Convolution"
bottom: "pool3/3x3_s2"
top: "inception_4a/5x5_reduce"
param {
lr_mult: 1
decay_mult: 1
}
param {
lr_mult: 2
decay_mult: 0
}
convolution_param {
num_output: 16
kernel_size: 1
weight_filler {
type: "xavier"
std: 0.2
}
bias_filler {
type: "constant"
value: 0.2
}
}
}
layer {
name: "inception_4a/relu_5x5_reduce"
type: "ReLU"
bottom: "inception_4a/5x5_reduce"
top: "inception_4a/5x5_reduce"
}
layer {
name: "inception_4a/5x5"
type: "Convolution"
bottom: "inception_4a/5x5_reduce"
top: "inception_4a/5x5"
param {
lr_mult: 1
decay_mult: 1
}
param {
lr_mult: 2
decay_mult: 0
}
convolution_param {
num_output: 48
pad: 2
kernel_size: 5
weight_filler {
type: "xavier"
std: 0.03
}
bias_filler {
type: "constant"
value: 0.2
}
}
}
layer {
name: "inception_4a/relu_5x5"
type: "ReLU"
bottom: "inception_4a/5x5"
top: "inception_4a/5x5"
}
layer {
name: "inception_4a/pool"
type: "Pooling"
bottom: "pool3/3x3_s2"
top: "inception_4a/pool"
pooling_param {
pool: MAX
kernel_size: 3
stride: 1
pad: 1
}
}
layer {
name: "inception_4a/pool_proj"
type: "Convolution"
bottom: "inception_4a/pool"
top: "inception_4a/pool_proj"
param {
lr_mult: 1
decay_mult: 1
}
param {
lr_mult: 2
decay_mult: 0
}
convolution_param {
num_output: 64
kernel_size: 1
weight_filler {
type: "xavier"
std: 0.1
}
bias_filler {
type: "constant"
value: 0.2
}
}
}
layer {
name: "inception_4a/relu_pool_proj"
type: "ReLU"
bottom: "inception_4a/pool_proj"
top: "inception_4a/pool_proj"
}
layer {
name: "inception_4a/output"
type: "Concat"
bottom: "inception_4a/1x1"
bottom: "inception_4a/3x3"
bottom: "inception_4a/5x5"
bottom: "inception_4a/pool_proj"
top: "inception_4a/output"
}
layer {
name: "loss1/ave_pool"
type: "Pooling"
bottom: "inception_4a/output"
top: "loss1/ave_pool"
pooling_param {
pool: AVE
kernel_size: 5
stride: 3
}
}
layer {
name: "loss1/conv"
type: "Convolution"
bottom: "loss1/ave_pool"
top: "loss1/conv"
param {
lr_mult: 1
decay_mult: 1
}
param {
lr_mult: 2
decay_mult: 0
}
convolution_param {
num_output: 128
kernel_size: 1
weight_filler {
type: "xavier"
std: 0.08
}
bias_filler {
type: "constant"
value: 0.2
}
}
}
layer {
name: "loss1/relu_conv"
type: "ReLU"
bottom: "loss1/conv"
top: "loss1/conv"
}
layer {
name: "loss1/fc"
type: "InnerProduct"
bottom: "loss1/conv"
top: "loss1/fc"
param {
lr_mult: 1
decay_mult: 1
}
param {
lr_mult: 2
decay_mult: 0
}
inner_product_param {
num_output: 1024
weight_filler {
type: "xavier"
std: 0.02
}
bias_filler {
type: "constant"
value: 0.2
}
}
}
layer {
name: "loss1/relu_fc"
type: "ReLU"
bottom: "loss1/fc"
top: "loss1/fc"
}
layer {
name: "loss1/drop_fc"
type: "Dropout"
bottom: "loss1/fc"
top: "loss1/fc"
dropout_param {
dropout_ratio: 0.7
}
}
layer {
name: "loss1/classifier"
type: "InnerProduct"
bottom: "loss1/fc"
top: "loss1/classifier"
param {
lr_mult: 1
decay_mult: 1
}
param {
lr_mult: 2
decay_mult: 0
}
inner_product_param {
num_output: 3
weight_filler {
type: "xavier"
std: 0.0009765625
}
bias_filler {
type: "constant"
value: 0
}
}
}
layer {
name: "loss1/loss"
type: "SoftmaxWithLoss"
bottom: "loss1/classifier"
bottom: "label"
top: "loss1/loss"
loss_weight: 0.3
}
layer {
name: "inception_4b/1x1"
type: "Convolution"
bottom: "inception_4a/output"
top: "inception_4b/1x1"
param {
lr_mult: 1
decay_mult: 1
}
param {
lr_mult: 2
decay_mult: 0
}
convolution_param {
num_output: 160
kernel_size: 1
weight_filler {
type: "xavier"
std: 0.03
}
bias_filler {
type: "constant"
value: 0.2
}
}
}
layer {
name: "inception_4b/relu_1x1"
type: "ReLU"
bottom: "inception_4b/1x1"
top: "inception_4b/1x1"
}
layer {
name: "inception_4b/3x3_reduce"
type: "Convolution"
bottom: "inception_4a/output"
top: "inception_4b/3x3_reduce"
param {
lr_mult: 1
decay_mult: 1
}
param {
lr_mult: 2
decay_mult: 0
}
convolution_param {
num_output: 112
kernel_size: 1
weight_filler {
type: "xavier"
std: 0.09
}
bias_filler {
type: "constant"
value: 0.2
}
}
}
layer {
name: "inception_4b/relu_3x3_reduce"
type: "ReLU"
bottom: "inception_4b/3x3_reduce"
top: "inception_4b/3x3_reduce"
}
layer {
name: "inception_4b/3x3"
type: "Convolution"
bottom: "inception_4b/3x3_reduce"
top: "inception_4b/3x3"
param {
lr_mult: 1
decay_mult: 1
}
param {
lr_mult: 2
decay_mult: 0
}
convolution_param {
num_output: 224
pad: 1
kernel_size: 3
weight_filler {
type: "xavier"
std: 0.03
}
bias_filler {
type: "constant"
value: 0.2
}
}
}
layer {
name: "inception_4b/relu_3x3"
type: "ReLU"
bottom: "inception_4b/3x3"
top: "inception_4b/3x3"
}
layer {
name: "inception_4b/5x5_reduce"
type: "Convolution"
bottom: "inception_4a/output"
top: "inception_4b/5x5_reduce"
param {
lr_mult: 1
decay_mult: 1
}
param {
lr_mult: 2
decay_mult: 0
}
convolution_param {
num_output: 24
kernel_size: 1
weight_filler {
type: "xavier"
std: 0.2
}
bias_filler {
type: "constant"
value: 0.2
}
}
}
layer {
name: "inception_4b/relu_5x5_reduce"
type: "ReLU"
bottom: "inception_4b/5x5_reduce"
top: "inception_4b/5x5_reduce"
}
layer {
name: "inception_4b/5x5"
type: "Convolution"
bottom: "inception_4b/5x5_reduce"
top: "inception_4b/5x5"
param {
lr_mult: 1
decay_mult: 1
}
param {
lr_mult: 2
decay_mult: 0
}
convolution_param {
num_output: 64
pad: 2
kernel_size: 5
weight_filler {
type: "xavier"
std: 0.03
}
bias_filler {
type: "constant"
value: 0.2
}
}
}
layer {
name: "inception_4b/relu_5x5"
type: "ReLU"
bottom: "inception_4b/5x5"
top: "inception_4b/5x5"
}
layer {
name: "inception_4b/pool"
type: "Pooling"
bottom: "inception_4a/output"
top: "inception_4b/pool"
pooling_param {
pool: MAX
kernel_size: 3
stride: 1
pad: 1
}
}
layer {
name: "inception_4b/pool_proj"
type: "Convolution"
bottom: "inception_4b/pool"
top: "inception_4b/pool_proj"
param {
lr_mult: 1
decay_mult: 1
}
param {
lr_mult: 2
decay_mult: 0
}
convolution_param {
num_output: 64
kernel_size: 1
weight_filler {
type: "xavier"
std: 0.1
}
bias_filler {
type: "constant"
value: 0.2
}
}
}
layer {
name: "inception_4b/relu_pool_proj"
type: "ReLU"
bottom: "inception_4b/pool_proj"
top: "inception_4b/pool_proj"
}
layer {
name: "inception_4b/output"
type: "Concat"
bottom: "inception_4b/1x1"
bottom: "inception_4b/3x3"
bottom: "inception_4b/5x5"
bottom: "inception_4b/pool_proj"
top: "inception_4b/output"
}
layer {
name: "inception_4c/1x1"
type: "Convolution"
bottom: "inception_4b/output"
top: "inception_4c/1x1"
param {
lr_mult: 1
decay_mult: 1
}
param {
lr_mult: 2
decay_mult: 0
}
convolution_param {
num_output: 128
kernel_size: 1
weight_filler {
type: "xavier"
std: 0.03
}
bias_filler {
type: "constant"
value: 0.2
}
}
}
layer {
name: "inception_4c/relu_1x1"
type: "ReLU"
bottom: "inception_4c/1x1"
top: "inception_4c/1x1"
}
layer {
name: "inception_4c/3x3_reduce"
type: "Convolution"
bottom: "inception_4b/output"
top: "inception_4c/3x3_reduce"
param {
lr_mult: 1
decay_mult: 1
}
param {
lr_mult: 2
decay_mult: 0
}
convolution_param {
num_output: 128
kernel_size: 1
weight_filler {
type: "xavier"
std: 0.09
}
bias_filler {
type: "constant"
value: 0.2
}
}
}
layer {
name: "inception_4c/relu_3x3_reduce"
type: "ReLU"
bottom: "inception_4c/3x3_reduce"
top: "inception_4c/3x3_reduce"
}
layer {
name: "inception_4c/3x3"
type: "Convolution"
bottom: "inception_4c/3x3_reduce"
top: "inception_4c/3x3"
param {
lr_mult: 1
decay_mult: 1
}
param {
lr_mult: 2
decay_mult: 0
}
convolution_param {
num_output: 256
pad: 1
kernel_size: 3
weight_filler {
type: "xavier"
std: 0.03
}
bias_filler {
type: "constant"
value: 0.2
}
}
}
layer {
name: "inception_4c/relu_3x3"
type: "ReLU"
bottom: "inception_4c/3x3"
top: "inception_4c/3x3"
}
layer {
name: "inception_4c/5x5_reduce"
type: "Convolution"
bottom: "inception_4b/output"
top: "inception_4c/5x5_reduce"
param {
lr_mult: 1
decay_mult: 1
}
param {
lr_mult: 2
decay_mult: 0
}
convolution_param {
num_output: 24
kernel_size: 1
weight_filler {
type: "xavier"
std: 0.2
}
bias_filler {
type: "constant"
value: 0.2
}
}
}
layer {
name: "inception_4c/relu_5x5_reduce"
type: "ReLU"
bottom: "inception_4c/5x5_reduce"
top: "inception_4c/5x5_reduce"
}
layer {
name: "inception_4c/5x5"
type: "Convolution"
bottom: "inception_4c/5x5_reduce"
top: "inception_4c/5x5"
param {
lr_mult: 1
decay_mult: 1
}
param {
lr_mult: 2
decay_mult: 0
}
convolution_param {
num_output: 64
pad: 2
kernel_size: 5
weight_filler {
type: "xavier"
std: 0.03
}
bias_filler {
type: "constant"
value: 0.2
}
}
}
layer {
name: "inception_4c/relu_5x5"
type: "ReLU"
bottom: "inception_4c/5x5"
top: "inception_4c/5x5"
}
layer {
name: "inception_4c/pool"
type: "Pooling"
bottom: "inception_4b/output"
top: "inception_4c/pool"
pooling_param {
pool: MAX
kernel_size: 3
stride: 1
pad: 1
}
}
layer {
name: "inception_4c/pool_proj"
type: "Convolution"
bottom: "inception_4c/pool"
top: "inception_4c/pool_proj"
param {
lr_mult: 1
decay_mult: 1
}
param {
lr_mult: 2
decay_mult: 0
}
convolution_param {
num_output: 64
kernel_size: 1
weight_filler {
type: "xavier"
std: 0.1
}
bias_filler {
type: "constant"
value: 0.2
}
}
}
layer {
name: "inception_4c/relu_pool_proj"
type: "ReLU"
bottom: "inception_4c/pool_proj"
top: "inception_4c/pool_proj"
}
layer {
name: "inception_4c/output"
type: "Concat"
bottom: "inception_4c/1x1"
bottom: "inception_4c/3x3"
bottom: "inception_4c/5x5"
bottom: "inception_4c/pool_proj"
top: "inception_4c/output"
}
layer {
name: "inception_4d/1x1"
type: "Convolution"
bottom: "inception_4c/output"
top: "inception_4d/1x1"
param {
lr_mult: 1
decay_mult: 1
}
param {
lr_mult: 2
decay_mult: 0
}
convolution_param {
num_output: 112
kernel_size: 1
weight_filler {
type: "xavier"
std: 0.03
}
bias_filler {
type: "constant"
value: 0.2
}
}
}
layer {
name: "inception_4d/relu_1x1"
type: "ReLU"
bottom: "inception_4d/1x1"
top: "inception_4d/1x1"
}
layer {
name: "inception_4d/3x3_reduce"
type: "Convolution"
bottom: "inception_4c/output"
top: "inception_4d/3x3_reduce"
param {
lr_mult: 1
decay_mult: 1
}
param {
lr_mult: 2
decay_mult: 0
}
convolution_param {
num_output: 144
kernel_size: 1
weight_filler {
type: "xavier"
std: 0.09
}
bias_filler {
type: "constant"
value: 0.2
}
}
}
layer {
name: "inception_4d/relu_3x3_reduce"
type: "ReLU"
bottom: "inception_4d/3x3_reduce"
top: "inception_4d/3x3_reduce"
}
layer {
name: "inception_4d/3x3"
type: "Convolution"
bottom: "inception_4d/3x3_reduce"
top: "inception_4d/3x3"
param {
lr_mult: 1
decay_mult: 1
}
param {
lr_mult: 2
decay_mult: 0
}
convolution_param {
num_output: 288
pad: 1
kernel_size: 3
weight_filler {
type: "xavier"
std: 0.03
}
bias_filler {
type: "constant"
value: 0.2
}
}
}
layer {
name: "inception_4d/relu_3x3"
type: "ReLU"
bottom: "inception_4d/3x3"
top: "inception_4d/3x3"
}
layer {
name: "inception_4d/5x5_reduce"
type: "Convolution"
bottom: "inception_4c/output"
top: "inception_4d/5x5_reduce"
param {
lr_mult: 1
decay_mult: 1
}
param {
lr_mult: 2
decay_mult: 0
}
convolution_param {
num_output: 32
kernel_size: 1
weight_filler {
type: "xavier"
std: 0.2
}
bias_filler {
type: "constant"
value: 0.2
}
}
}
layer {
name: "inception_4d/relu_5x5_reduce"
type: "ReLU"
bottom: "inception_4d/5x5_reduce"
top: "inception_4d/5x5_reduce"
}
layer {
name: "inception_4d/5x5"
type: "Convolution"
bottom: "inception_4d/5x5_reduce"
top: "inception_4d/5x5"
param {
lr_mult: 1
decay_mult: 1
}
param {
lr_mult: 2
decay_mult: 0
}
convolution_param {
num_output: 64
pad: 2
kernel_size: 5
weight_filler {
type: "xavier"
std: 0.03
}
bias_filler {
type: "constant"
value: 0.2
}
}
}
layer {
name: "inception_4d/relu_5x5"
type: "ReLU"
bottom: "inception_4d/5x5"
top: "inception_4d/5x5"
}
layer {
name: "inception_4d/pool"
type: "Pooling"
bottom: "inception_4c/output"
top: "inception_4d/pool"
pooling_param {
pool: MAX
kernel_size: 3
stride: 1
pad: 1
}
}
layer {
name: "inception_4d/pool_proj"
type: "Convolution"
bottom: "inception_4d/pool"
top: "inception_4d/pool_proj"
param {
lr_mult: 1
decay_mult: 1
}
param {
lr_mult: 2
decay_mult: 0
}
convolution_param {
num_output: 64
kernel_size: 1
weight_filler {
type: "xavier"
std: 0.1
}
bias_filler {
type: "constant"
value: 0.2
}
}
}
layer {
name: "inception_4d/relu_pool_proj"
type: "ReLU"
bottom: "inception_4d/pool_proj"
top: "inception_4d/pool_proj"
}
layer {
name: "inception_4d/output"
type: "Concat"
bottom: "inception_4d/1x1"
bottom: "inception_4d/3x3"
bottom: "inception_4d/5x5"
bottom: "inception_4d/pool_proj"
top: "inception_4d/output"
}
layer {
name: "loss2/ave_pool"
type: "Pooling"
bottom: "inception_4d/output"
top: "loss2/ave_pool"
pooling_param {
pool: AVE
kernel_size: 5
stride: 3
}
}
layer {
name: "loss2/conv"
type: "Convolution"
bottom: "loss2/ave_pool"
top: "loss2/conv"
param {
lr_mult: 1
decay_mult: 1
}
param {
lr_mult: 2
decay_mult: 0
}
convolution_param {
num_output: 128
kernel_size: 1
weight_filler {
type: "xavier"
std: 0.08
}
bias_filler {
type: "constant"
value: 0.2
}
}
}
layer {
name: "loss2/relu_conv"
type: "ReLU"
bottom: "loss2/conv"
top: "loss2/conv"
}
layer {
name: "loss2/fc"
type: "InnerProduct"
bottom: "loss2/conv"
top: "loss2/fc"
param {
lr_mult: 1
decay_mult: 1
}
param {
lr_mult: 2
decay_mult: 0
}
inner_product_param {
num_output: 1024
weight_filler {
type: "xavier"
std: 0.02
}
bias_filler {
type: "constant"
value: 0.2
}
}
}
layer {
name: "loss2/relu_fc"
type: "ReLU"
bottom: "loss2/fc"
top: "loss2/fc"
}
layer {
name: "loss2/drop_fc"
type: "Dropout"
bottom: "loss2/fc"
top: "loss2/fc"
dropout_param {
dropout_ratio: 0.7
}
}
layer {
name: "loss2/classifier"
type: "InnerProduct"
bottom: "loss2/fc"
top: "loss2/classifier"
param {
lr_mult: 1
decay_mult: 1
}
param {
lr_mult: 2
decay_mult: 0
}
inner_product_param {
num_output: 3
weight_filler {
type: "xavier"
std: 0.0009765625
}
bias_filler {
type: "constant"
value: 0
}
}
}
layer {
name: "loss2/loss"
type: "SoftmaxWithLoss"
bottom: "loss2/classifier"
bottom: "label"
top: "loss2/loss"
loss_weight: 0.3
}
layer {
name: "inception_4e/1x1"
type: "Convolution"
bottom: "inception_4d/output"
top: "inception_4e/1x1"
param {
lr_mult: 1
decay_mult: 1
}
param {
lr_mult: 2
decay_mult: 0
}
convolution_param {
num_output: 256
kernel_size: 1
weight_filler {
type: "xavier"
std: 0.03
}
bias_filler {
type: "constant"
value: 0.2
}
}
}
layer {
name: "inception_4e/relu_1x1"
type: "ReLU"
bottom: "inception_4e/1x1"
top: "inception_4e/1x1"
}
layer {
name: "inception_4e/3x3_reduce"
type: "Convolution"
bottom: "inception_4d/output"
top: "inception_4e/3x3_reduce"
param {
lr_mult: 1
decay_mult: 1
}
param {
lr_mult: 2
decay_mult: 0
}
convolution_param {
num_output: 160
kernel_size: 1
weight_filler {
type: "xavier"
std: 0.09
}
bias_filler {
type: "constant"
value: 0.2
}
}
}
layer {
name: "inception_4e/relu_3x3_reduce"
type: "ReLU"
bottom: "inception_4e/3x3_reduce"
top: "inception_4e/3x3_reduce"
}
layer {
name: "inception_4e/3x3"
type: "Convolution"
bottom: "inception_4e/3x3_reduce"
top: "inception_4e/3x3"
param {
lr_mult: 1
decay_mult: 1
}
param {
lr_mult: 2
decay_mult: 0
}
convolution_param {
num_output: 320
pad: 1
kernel_size: 3
weight_filler {
type: "xavier"
std: 0.03
}
bias_filler {
type: "constant"
value: 0.2
}
}
}
layer {
name: "inception_4e/relu_3x3"
type: "ReLU"
bottom: "inception_4e/3x3"
top: "inception_4e/3x3"
}
layer {
name: "inception_4e/5x5_reduce"
type: "Convolution"
bottom: "inception_4d/output"
top: "inception_4e/5x5_reduce"
param {
lr_mult: 1
decay_mult: 1
}
param {
lr_mult: 2
decay_mult: 0
}
convolution_param {
num_output: 32
kernel_size: 1
weight_filler {
type: "xavier"
std: 0.2
}
bias_filler {
type: "constant"
value: 0.2
}
}
}
layer {
name: "inceptio
I0515 19:31:10.127357   577 layer_factory.hpp:77] Creating layer train-data
I0515 19:31:10.127909   577 net.cpp:94] Creating Layer train-data
I0515 19:31:10.127933   577 net.cpp:409] train-data -> data
I0515 19:31:10.127976   577 net.cpp:409] train-data -> label
I0515 19:31:10.127993   577 data_transformer.cpp:25] Loading mean file from: /opt/DIGITS/digits/jobs/20190515-190236-6094/mean.binaryproto
I0515 19:31:10.128979   584 db_lmdb.cpp:35] Opened lmdb /opt/DIGITS/digits/jobs/20190515-190236-6094/train_db
I0515 19:31:10.138062   577 data_layer.cpp:78] ReshapePrefetch 32, 3, 224, 224
I0515 19:31:10.138165   577 data_layer.cpp:83] output data size: 32,3,224,224
I0515 19:31:10.177305   577 net.cpp:144] Setting up train-data
I0515 19:31:10.177340   577 net.cpp:151] Top shape: 32 3 224 224 (4816896)
I0515 19:31:10.177345   577 net.cpp:151] Top shape: 32 (32)
I0515 19:31:10.177348   577 net.cpp:159] Memory required for data: 19267712
I0515 19:31:10.177362   577 layer_factory.hpp:77] Creating layer label_train-data_1_split
I0515 19:31:10.177381   577 net.cpp:94] Creating Layer label_train-data_1_split
I0515 19:31:10.177389   577 net.cpp:435] label_train-data_1_split <- label
I0515 19:31:10.177407   577 net.cpp:409] label_train-data_1_split -> label_train-data_1_split_0
I0515 19:31:10.177417   577 net.cpp:409] label_train-data_1_split -> label_train-data_1_split_1
I0515 19:31:10.177454   577 net.cpp:409] label_train-data_1_split -> label_train-data_1_split_2
I0515 19:31:10.177528   577 net.cpp:144] Setting up label_train-data_1_split
I0515 19:31:10.177536   577 net.cpp:151] Top shape: 32 (32)
I0515 19:31:10.177539   577 net.cpp:151] Top shape: 32 (32)
I0515 19:31:10.177542   577 net.cpp:151] Top shape: 32 (32)
I0515 19:31:10.177546   577 net.cpp:159] Memory required for data: 19268096
I0515 19:31:10.177549   577 layer_factory.hpp:77] Creating layer conv1/7x7_s2
I0515 19:31:10.177573   577 net.cpp:94] Creating Layer conv1/7x7_s2
I0515 19:31:10.177577   577 net.cpp:435] conv1/7x7_s2 <- data
I0515 19:31:10.177587   577 net.cpp:409] conv1/7x7_s2 -> conv1/7x7_s2
I0515 19:31:10.178021   577 net.cpp:144] Setting up conv1/7x7_s2
I0515 19:31:10.178032   577 net.cpp:151] Top shape: 32 64 112 112 (25690112)
I0515 19:31:10.178036   577 net.cpp:159] Memory required for data: 122028544
I0515 19:31:10.178056   577 layer_factory.hpp:77] Creating layer conv1/relu_7x7
I0515 19:31:10.178068   577 net.cpp:94] Creating Layer conv1/relu_7x7
I0515 19:31:10.178071   577 net.cpp:435] conv1/relu_7x7 <- conv1/7x7_s2
I0515 19:31:10.178077   577 net.cpp:396] conv1/relu_7x7 -> conv1/7x7_s2 (in-place)
I0515 19:31:10.178092   577 net.cpp:144] Setting up conv1/relu_7x7
I0515 19:31:10.178097   577 net.cpp:151] Top shape: 32 64 112 112 (25690112)
I0515 19:31:10.178102   577 net.cpp:159] Memory required for data: 224788992
I0515 19:31:10.178104   577 layer_factory.hpp:77] Creating layer pool1/3x3_s2
I0515 19:31:10.178114   577 net.cpp:94] Creating Layer pool1/3x3_s2
I0515 19:31:10.178117   577 net.cpp:435] pool1/3x3_s2 <- conv1/7x7_s2
I0515 19:31:10.178124   577 net.cpp:409] pool1/3x3_s2 -> pool1/3x3_s2
I0515 19:31:10.178424   577 net.cpp:144] Setting up pool1/3x3_s2
I0515 19:31:10.178443   577 net.cpp:151] Top shape: 32 64 56 56 (6422528)
I0515 19:31:10.178448   577 net.cpp:159] Memory required for data: 250479104
I0515 19:31:10.178452   577 layer_factory.hpp:77] Creating layer pool1/norm1
I0515 19:31:10.178467   577 net.cpp:94] Creating Layer pool1/norm1
I0515 19:31:10.178490   577 net.cpp:435] pool1/norm1 <- pool1/3x3_s2
I0515 19:31:10.178499   577 net.cpp:409] pool1/norm1 -> pool1/norm1
I0515 19:31:10.178582   577 net.cpp:144] Setting up pool1/norm1
I0515 19:31:10.178591   577 net.cpp:151] Top shape: 32 64 56 56 (6422528)
I0515 19:31:10.178601   577 net.cpp:159] Memory required for data: 276169216
I0515 19:31:10.178604   577 layer_factory.hpp:77] Creating layer conv2/3x3_reduce
I0515 19:31:10.178616   577 net.cpp:94] Creating Layer conv2/3x3_reduce
I0515 19:31:10.178619   577 net.cpp:435] conv2/3x3_reduce <- pool1/norm1
I0515 19:31:10.178648   577 net.cpp:409] conv2/3x3_reduce -> conv2/3x3_reduce
I0515 19:31:10.178920   577 net.cpp:144] Setting up conv2/3x3_reduce
I0515 19:31:10.178928   577 net.cpp:151] Top shape: 32 64 56 56 (6422528)
I0515 19:31:10.178932   577 net.cpp:159] Memory required for data: 301859328
I0515 19:31:10.178941   577 layer_factory.hpp:77] Creating layer conv2/relu_3x3_reduce
I0515 19:31:10.178947   577 net.cpp:94] Creating Layer conv2/relu_3x3_reduce
I0515 19:31:10.178951   577 net.cpp:435] conv2/relu_3x3_reduce <- conv2/3x3_reduce
I0515 19:31:10.178958   577 net.cpp:396] conv2/relu_3x3_reduce -> conv2/3x3_reduce (in-place)
I0515 19:31:10.178966   577 net.cpp:144] Setting up conv2/relu_3x3_reduce
I0515 19:31:10.178972   577 net.cpp:151] Top shape: 32 64 56 56 (6422528)
I0515 19:31:10.178975   577 net.cpp:159] Memory required for data: 327549440
I0515 19:31:10.178979   577 layer_factory.hpp:77] Creating layer conv2/3x3
I0515 19:31:10.178989   577 net.cpp:94] Creating Layer conv2/3x3
I0515 19:31:10.178993   577 net.cpp:435] conv2/3x3 <- conv2/3x3_reduce
I0515 19:31:10.178999   577 net.cpp:409] conv2/3x3 -> conv2/3x3
I0515 19:31:10.180635   577 net.cpp:144] Setting up conv2/3x3
I0515 19:31:10.180663   577 net.cpp:151] Top shape: 32 192 56 56 (19267584)
I0515 19:31:10.180667   577 net.cpp:159] Memory required for data: 404619776
I0515 19:31:10.180686   577 layer_factory.hpp:77] Creating layer conv2/relu_3x3
I0515 19:31:10.180711   577 net.cpp:94] Creating Layer conv2/relu_3x3
I0515 19:31:10.180716   577 net.cpp:435] conv2/relu_3x3 <- conv2/3x3
I0515 19:31:10.180729   577 net.cpp:396] conv2/relu_3x3 -> conv2/3x3 (in-place)
I0515 19:31:10.180738   577 net.cpp:144] Setting up conv2/relu_3x3
I0515 19:31:10.180743   577 net.cpp:151] Top shape: 32 192 56 56 (19267584)
I0515 19:31:10.180747   577 net.cpp:159] Memory required for data: 481690112
I0515 19:31:10.180750   577 layer_factory.hpp:77] Creating layer conv2/norm2
I0515 19:31:10.180757   577 net.cpp:94] Creating Layer conv2/norm2
I0515 19:31:10.180760   577 net.cpp:435] conv2/norm2 <- conv2/3x3
I0515 19:31:10.180765   577 net.cpp:409] conv2/norm2 -> conv2/norm2
I0515 19:31:10.180804   577 net.cpp:144] Setting up conv2/norm2
I0515 19:31:10.180810   577 net.cpp:151] Top shape: 32 192 56 56 (19267584)
I0515 19:31:10.180814   577 net.cpp:159] Memory required for data: 558760448
I0515 19:31:10.180817   577 layer_factory.hpp:77] Creating layer pool2/3x3_s2
I0515 19:31:10.180824   577 net.cpp:94] Creating Layer pool2/3x3_s2
I0515 19:31:10.180829   577 net.cpp:435] pool2/3x3_s2 <- conv2/norm2
I0515 19:31:10.180833   577 net.cpp:409] pool2/3x3_s2 -> pool2/3x3_s2
I0515 19:31:10.180866   577 net.cpp:144] Setting up pool2/3x3_s2
I0515 19:31:10.180871   577 net.cpp:151] Top shape: 32 192 28 28 (4816896)
I0515 19:31:10.180874   577 net.cpp:159] Memory required for data: 578028032
I0515 19:31:10.180877   577 layer_factory.hpp:77] Creating layer pool2/3x3_s2_pool2/3x3_s2_0_split
I0515 19:31:10.180884   577 net.cpp:94] Creating Layer pool2/3x3_s2_pool2/3x3_s2_0_split
I0515 19:31:10.180888   577 net.cpp:435] pool2/3x3_s2_pool2/3x3_s2_0_split <- pool2/3x3_s2
I0515 19:31:10.180893   577 net.cpp:409] pool2/3x3_s2_pool2/3x3_s2_0_split -> pool2/3x3_s2_pool2/3x3_s2_0_split_0
I0515 19:31:10.180900   577 net.cpp:409] pool2/3x3_s2_pool2/3x3_s2_0_split -> pool2/3x3_s2_pool2/3x3_s2_0_split_1
I0515 19:31:10.180907   577 net.cpp:409] pool2/3x3_s2_pool2/3x3_s2_0_split -> pool2/3x3_s2_pool2/3x3_s2_0_split_2
I0515 19:31:10.180913   577 net.cpp:409] pool2/3x3_s2_pool2/3x3_s2_0_split -> pool2/3x3_s2_pool2/3x3_s2_0_split_3
I0515 19:31:10.180965   577 net.cpp:144] Setting up pool2/3x3_s2_pool2/3x3_s2_0_split
I0515 19:31:10.180971   577 net.cpp:151] Top shape: 32 192 28 28 (4816896)
I0515 19:31:10.180975   577 net.cpp:151] Top shape: 32 192 28 28 (4816896)
I0515 19:31:10.180979   577 net.cpp:151] Top shape: 32 192 28 28 (4816896)
I0515 19:31:10.180982   577 net.cpp:151] Top shape: 32 192 28 28 (4816896)
I0515 19:31:10.180986   577 net.cpp:159] Memory required for data: 655098368
I0515 19:31:10.180989   577 layer_factory.hpp:77] Creating layer inception_3a/1x1
I0515 19:31:10.180999   577 net.cpp:94] Creating Layer inception_3a/1x1
I0515 19:31:10.181002   577 net.cpp:435] inception_3a/1x1 <- pool2/3x3_s2_pool2/3x3_s2_0_split_0
I0515 19:31:10.181010   577 net.cpp:409] inception_3a/1x1 -> inception_3a/1x1
I0515 19:31:10.181298   577 net.cpp:144] Setting up inception_3a/1x1
I0515 19:31:10.181306   577 net.cpp:151] Top shape: 32 64 28 28 (1605632)
I0515 19:31:10.181309   577 net.cpp:159] Memory required for data: 661520896
I0515 19:31:10.181315   577 layer_factory.hpp:77] Creating layer inception_3a/relu_1x1
I0515 19:31:10.181321   577 net.cpp:94] Creating Layer inception_3a/relu_1x1
I0515 19:31:10.181324   577 net.cpp:435] inception_3a/relu_1x1 <- inception_3a/1x1
I0515 19:31:10.181329   577 net.cpp:396] inception_3a/relu_1x1 -> inception_3a/1x1 (in-place)
I0515 19:31:10.181336   577 net.cpp:144] Setting up inception_3a/relu_1x1
I0515 19:31:10.181340   577 net.cpp:151] Top shape: 32 64 28 28 (1605632)
I0515 19:31:10.181344   577 net.cpp:159] Memory required for data: 667943424
I0515 19:31:10.181346   577 layer_factory.hpp:77] Creating layer inception_3a/3x3_reduce
I0515 19:31:10.181356   577 net.cpp:94] Creating Layer inception_3a/3x3_reduce
I0515 19:31:10.181360   577 net.cpp:435] inception_3a/3x3_reduce <- pool2/3x3_s2_pool2/3x3_s2_0_split_1
I0515 19:31:10.181366   577 net.cpp:409] inception_3a/3x3_reduce -> inception_3a/3x3_reduce
I0515 19:31:10.184170   577 net.cpp:144] Setting up inception_3a/3x3_reduce
I0515 19:31:10.184185   577 net.cpp:151] Top shape: 32 96 28 28 (2408448)
I0515 19:31:10.184187   577 net.cpp:159] Memory required for data: 677577216
I0515 19:31:10.184202   577 layer_factory.hpp:77] Creating layer inception_3a/relu_3x3_reduce
I0515 19:31:10.184212   577 net.cpp:94] Creating Layer inception_3a/relu_3x3_reduce
I0515 19:31:10.184216   577 net.cpp:435] inception_3a/relu_3x3_reduce <- inception_3a/3x3_reduce
I0515 19:31:10.184224   577 net.cpp:396] inception_3a/relu_3x3_reduce -> inception_3a/3x3_reduce (in-place)
I0515 19:31:10.184232   577 net.cpp:144] Setting up inception_3a/relu_3x3_reduce
I0515 19:31:10.184237   577 net.cpp:151] Top shape: 32 96 28 28 (2408448)
I0515 19:31:10.184239   577 net.cpp:159] Memory required for data: 687211008
I0515 19:31:10.184242   577 layer_factory.hpp:77] Creating layer inception_3a/3x3
I0515 19:31:10.184252   577 net.cpp:94] Creating Layer inception_3a/3x3
I0515 19:31:10.184255   577 net.cpp:435] inception_3a/3x3 <- inception_3a/3x3_reduce
I0515 19:31:10.184262   577 net.cpp:409] inception_3a/3x3 -> inception_3a/3x3
I0515 19:31:10.185202   577 net.cpp:144] Setting up inception_3a/3x3
I0515 19:31:10.185214   577 net.cpp:151] Top shape: 32 128 28 28 (3211264)
I0515 19:31:10.185217   577 net.cpp:159] Memory required for data: 700056064
I0515 19:31:10.185225   577 layer_factory.hpp:77] Creating layer inception_3a/relu_3x3
I0515 19:31:10.185232   577 net.cpp:94] Creating Layer inception_3a/relu_3x3
I0515 19:31:10.185236   577 net.cpp:435] inception_3a/relu_3x3 <- inception_3a/3x3
I0515 19:31:10.185242   577 net.cpp:396] inception_3a/relu_3x3 -> inception_3a/3x3 (in-place)
I0515 19:31:10.185250   577 net.cpp:144] Setting up inception_3a/relu_3x3
I0515 19:31:10.185254   577 net.cpp:151] Top shape: 32 128 28 28 (3211264)
I0515 19:31:10.185257   577 net.cpp:159] Memory required for data: 712901120
I0515 19:31:10.185261   577 layer_factory.hpp:77] Creating layer inception_3a/5x5_reduce
I0515 19:31:10.185271   577 net.cpp:94] Creating Layer inception_3a/5x5_reduce
I0515 19:31:10.185276   577 net.cpp:435] inception_3a/5x5_reduce <- pool2/3x3_s2_pool2/3x3_s2_0_split_2
I0515 19:31:10.185282   577 net.cpp:409] inception_3a/5x5_reduce -> inception_3a/5x5_reduce
I0515 19:31:10.185498   577 net.cpp:144] Setting up inception_3a/5x5_reduce
I0515 19:31:10.185506   577 net.cpp:151] Top shape: 32 16 28 28 (401408)
I0515 19:31:10.185510   577 net.cpp:159] Memory required for data: 714506752
I0515 19:31:10.185515   577 layer_factory.hpp:77] Creating layer inception_3a/relu_5x5_reduce
I0515 19:31:10.185521   577 net.cpp:94] Creating Layer inception_3a/relu_5x5_reduce
I0515 19:31:10.185525   577 net.cpp:435] inception_3a/relu_5x5_reduce <- inception_3a/5x5_reduce
I0515 19:31:10.185531   577 net.cpp:396] inception_3a/relu_5x5_reduce -> inception_3a/5x5_reduce (in-place)
I0515 19:31:10.185539   577 net.cpp:144] Setting up inception_3a/relu_5x5_reduce
I0515 19:31:10.185542   577 net.cpp:151] Top shape: 32 16 28 28 (401408)
I0515 19:31:10.185545   577 net.cpp:159] Memory required for data: 716112384
I0515 19:31:10.185549   577 layer_factory.hpp:77] Creating layer inception_3a/5x5
I0515 19:31:10.185559   577 net.cpp:94] Creating Layer inception_3a/5x5
I0515 19:31:10.185564   577 net.cpp:435] inception_3a/5x5 <- inception_3a/5x5_reduce
I0515 19:31:10.185570   577 net.cpp:409] inception_3a/5x5 -> inception_3a/5x5
I0515 19:31:10.185885   577 net.cpp:144] Setting up inception_3a/5x5
I0515 19:31:10.185894   577 net.cpp:151] Top shape: 32 32 28 28 (802816)
I0515 19:31:10.185899   577 net.cpp:159] Memory required for data: 719323648
I0515 19:31:10.185904   577 layer_factory.hpp:77] Creating layer inception_3a/relu_5x5
I0515 19:31:10.185910   577 net.cpp:94] Creating Layer inception_3a/relu_5x5
I0515 19:31:10.185914   577 net.cpp:435] inception_3a/relu_5x5 <- inception_3a/5x5
I0515 19:31:10.185920   577 net.cpp:396] inception_3a/relu_5x5 -> inception_3a/5x5 (in-place)
I0515 19:31:10.185926   577 net.cpp:144] Setting up inception_3a/relu_5x5
I0515 19:31:10.185950   577 net.cpp:151] Top shape: 32 32 28 28 (802816)
I0515 19:31:10.185953   577 net.cpp:159] Memory required for data: 722534912
I0515 19:31:10.185956   577 layer_factory.hpp:77] Creating layer inception_3a/pool
I0515 19:31:10.185963   577 net.cpp:94] Creating Layer inception_3a/pool
I0515 19:31:10.185967   577 net.cpp:435] inception_3a/pool <- pool2/3x3_s2_pool2/3x3_s2_0_split_3
I0515 19:31:10.185974   577 net.cpp:409] inception_3a/pool -> inception_3a/pool
I0515 19:31:10.186013   577 net.cpp:144] Setting up inception_3a/pool
I0515 19:31:10.186020   577 net.cpp:151] Top shape: 32 192 28 28 (4816896)
I0515 19:31:10.186023   577 net.cpp:159] Memory required for data: 741802496
I0515 19:31:10.186026   577 layer_factory.hpp:77] Creating layer inception_3a/pool_proj
I0515 19:31:10.186036   577 net.cpp:94] Creating Layer inception_3a/pool_proj
I0515 19:31:10.186040   577 net.cpp:435] inception_3a/pool_proj <- inception_3a/pool
I0515 19:31:10.186048   577 net.cpp:409] inception_3a/pool_proj -> inception_3a/pool_proj
I0515 19:31:10.187288   577 net.cpp:144] Setting up inception_3a/pool_proj
I0515 19:31:10.187310   577 net.cpp:151] Top shape: 32 32 28 28 (802816)
I0515 19:31:10.187316   577 net.cpp:159] Memory required for data: 745013760
I0515 19:31:10.187327   577 layer_factory.hpp:77] Creating layer inception_3a/relu_pool_proj
I0515 19:31:10.187335   577 net.cpp:94] Creating Layer inception_3a/relu_pool_proj
I0515 19:31:10.187340   577 net.cpp:435] inception_3a/relu_pool_proj <- inception_3a/pool_proj
I0515 19:31:10.187347   577 net.cpp:396] inception_3a/relu_pool_proj -> inception_3a/pool_proj (in-place)
I0515 19:31:10.187355   577 net.cpp:144] Setting up inception_3a/relu_pool_proj
I0515 19:31:10.187361   577 net.cpp:151] Top shape: 32 32 28 28 (802816)
I0515 19:31:10.187363   577 net.cpp:159] Memory required for data: 748225024
I0515 19:31:10.187367   577 layer_factory.hpp:77] Creating layer inception_3a/output
I0515 19:31:10.187374   577 net.cpp:94] Creating Layer inception_3a/output
I0515 19:31:10.187392   577 net.cpp:435] inception_3a/output <- inception_3a/1x1
I0515 19:31:10.187398   577 net.cpp:435] inception_3a/output <- inception_3a/3x3
I0515 19:31:10.187402   577 net.cpp:435] inception_3a/output <- inception_3a/5x5
I0515 19:31:10.187407   577 net.cpp:435] inception_3a/output <- inception_3a/pool_proj
I0515 19:31:10.187412   577 net.cpp:409] inception_3a/output -> inception_3a/output
I0515 19:31:10.187439   577 net.cpp:144] Setting up inception_3a/output
I0515 19:31:10.187445   577 net.cpp:151] Top shape: 32 256 28 28 (6422528)
I0515 19:31:10.187448   577 net.cpp:159] Memory required for data: 773915136
I0515 19:31:10.187453   577 layer_factory.hpp:77] Creating layer inception_3a/output_inception_3a/output_0_split
I0515 19:31:10.187460   577 net.cpp:94] Creating Layer inception_3a/output_inception_3a/output_0_split
I0515 19:31:10.187464   577 net.cpp:435] inception_3a/output_inception_3a/output_0_split <- inception_3a/output
I0515 19:31:10.187470   577 net.cpp:409] inception_3a/output_inception_3a/output_0_split -> inception_3a/output_inception_3a/output_0_split_0
I0515 19:31:10.187479   577 net.cpp:409] inception_3a/output_inception_3a/output_0_split -> inception_3a/output_inception_3a/output_0_split_1
I0515 19:31:10.187484   577 net.cpp:409] inception_3a/output_inception_3a/output_0_split -> inception_3a/output_inception_3a/output_0_split_2
I0515 19:31:10.187490   577 net.cpp:409] inception_3a/output_inception_3a/output_0_split -> inception_3a/output_inception_3a/output_0_split_3
I0515 19:31:10.187559   577 net.cpp:144] Setting up inception_3a/output_inception_3a/output_0_split
I0515 19:31:10.187566   577 net.cpp:151] Top shape: 32 256 28 28 (6422528)
I0515 19:31:10.187570   577 net.cpp:151] Top shape: 32 256 28 28 (6422528)
I0515 19:31:10.187574   577 net.cpp:151] Top shape: 32 256 28 28 (6422528)
I0515 19:31:10.187593   577 net.cpp:151] Top shape: 32 256 28 28 (6422528)
I0515 19:31:10.187597   577 net.cpp:159] Memory required for data: 876675584
I0515 19:31:10.187600   577 layer_factory.hpp:77] Creating layer inception_3b/1x1
I0515 19:31:10.187624   577 net.cpp:94] Creating Layer inception_3b/1x1
I0515 19:31:10.187628   577 net.cpp:435] inception_3b/1x1 <- inception_3a/output_inception_3a/output_0_split_0
I0515 19:31:10.187636   577 net.cpp:409] inception_3b/1x1 -> inception_3b/1x1
I0515 19:31:10.188135   577 net.cpp:144] Setting up inception_3b/1x1
I0515 19:31:10.188145   577 net.cpp:151] Top shape: 32 128 28 28 (3211264)
I0515 19:31:10.188149   577 net.cpp:159] Memory required for data: 889520640
I0515 19:31:10.188154   577 layer_factory.hpp:77] Creating layer inception_3b/relu_1x1
I0515 19:31:10.188161   577 net.cpp:94] Creating Layer inception_3b/relu_1x1
I0515 19:31:10.188165   577 net.cpp:435] inception_3b/relu_1x1 <- inception_3b/1x1
I0515 19:31:10.188172   577 net.cpp:396] inception_3b/relu_1x1 -> inception_3b/1x1 (in-place)
I0515 19:31:10.188179   577 net.cpp:144] Setting up inception_3b/relu_1x1
I0515 19:31:10.188184   577 net.cpp:151] Top shape: 32 128 28 28 (3211264)
I0515 19:31:10.188186   577 net.cpp:159] Memory required for data: 902365696
I0515 19:31:10.188190   577 layer_factory.hpp:77] Creating layer inception_3b/3x3_reduce
I0515 19:31:10.188201   577 net.cpp:94] Creating Layer inception_3b/3x3_reduce
I0515 19:31:10.188205   577 net.cpp:435] inception_3b/3x3_reduce <- inception_3a/output_inception_3a/output_0_split_1
I0515 19:31:10.188211   577 net.cpp:409] inception_3b/3x3_reduce -> inception_3b/3x3_reduce
I0515 19:31:10.188628   577 net.cpp:144] Setting up inception_3b/3x3_reduce
I0515 19:31:10.188649   577 net.cpp:151] Top shape: 32 128 28 28 (3211264)
I0515 19:31:10.188653   577 net.cpp:159] Memory required for data: 915210752
I0515 19:31:10.188659   577 layer_factory.hpp:77] Creating layer inception_3b/relu_3x3_reduce
I0515 19:31:10.188666   577 net.cpp:94] Creating Layer inception_3b/relu_3x3_reduce
I0515 19:31:10.188670   577 net.cpp:435] inception_3b/relu_3x3_reduce <- inception_3b/3x3_reduce
I0515 19:31:10.188678   577 net.cpp:396] inception_3b/relu_3x3_reduce -> inception_3b/3x3_reduce (in-place)
I0515 19:31:10.188684   577 net.cpp:144] Setting up inception_3b/relu_3x3_reduce
I0515 19:31:10.188689   577 net.cpp:151] Top shape: 32 128 28 28 (3211264)
I0515 19:31:10.188693   577 net.cpp:159] Memory required for data: 928055808
I0515 19:31:10.188695   577 layer_factory.hpp:77] Creating layer inception_3b/3x3
I0515 19:31:10.188711   577 net.cpp:94] Creating Layer inception_3b/3x3
I0515 19:31:10.188715   577 net.cpp:435] inception_3b/3x3 <- inception_3b/3x3_reduce
I0515 19:31:10.188729   577 net.cpp:409] inception_3b/3x3 -> inception_3b/3x3
I0515 19:31:10.206781   577 net.cpp:144] Setting up inception_3b/3x3
I0515 19:31:10.206813   577 net.cpp:151] Top shape: 32 192 28 28 (4816896)
I0515 19:31:10.206822   577 net.cpp:159] Memory required for data: 947323392
I0515 19:31:10.206836   577 layer_factory.hpp:77] Creating layer inception_3b/relu_3x3
I0515 19:31:10.206853   577 net.cpp:94] Creating Layer inception_3b/relu_3x3
I0515 19:31:10.206863   577 net.cpp:435] inception_3b/relu_3x3 <- inception_3b/3x3
I0515 19:31:10.206876   577 net.cpp:396] inception_3b/relu_3x3 -> inception_3b/3x3 (in-place)
I0515 19:31:10.206905   577 net.cpp:144] Setting up inception_3b/relu_3x3
I0515 19:31:10.206918   577 net.cpp:151] Top shape: 32 192 28 28 (4816896)
I0515 19:31:10.206924   577 net.cpp:159] Memory required for data: 966590976
I0515 19:31:10.206933   577 layer_factory.hpp:77] Creating layer inception_3b/5x5_reduce
I0515 19:31:10.206950   577 net.cpp:94] Creating Layer inception_3b/5x5_reduce
I0515 19:31:10.206959   577 net.cpp:435] inception_3b/5x5_reduce <- inception_3a/output_inception_3a/output_0_split_2
I0515 19:31:10.206972   577 net.cpp:409] inception_3b/5x5_reduce -> inception_3b/5x5_reduce
I0515 19:31:10.207458   577 net.cpp:144] Setting up inception_3b/5x5_reduce
I0515 19:31:10.207474   577 net.cpp:151] Top shape: 32 32 28 28 (802816)
I0515 19:31:10.207482   577 net.cpp:159] Memory required for data: 969802240
I0515 19:31:10.207494   577 layer_factory.hpp:77] Creating layer inception_3b/relu_5x5_reduce
I0515 19:31:10.207530   577 net.cpp:94] Creating Layer inception_3b/relu_5x5_reduce
I0515 19:31:10.207540   577 net.cpp:435] inception_3b/relu_5x5_reduce <- inception_3b/5x5_reduce
I0515 19:31:10.207566   577 net.cpp:396] inception_3b/relu_5x5_reduce -> inception_3b/5x5_reduce (in-place)
I0515 19:31:10.207595   577 net.cpp:144] Setting up inception_3b/relu_5x5_reduce
I0515 19:31:10.207605   577 net.cpp:151] Top shape: 32 32 28 28 (802816)
I0515 19:31:10.207628   577 net.cpp:159] Memory required for data: 973013504
I0515 19:31:10.207634   577 layer_factory.hpp:77] Creating layer inception_3b/5x5
I0515 19:31:10.207751   577 net.cpp:94] Creating Layer inception_3b/5x5
I0515 19:31:10.207759   577 net.cpp:435] inception_3b/5x5 <- inception_3b/5x5_reduce
I0515 19:31:10.207772   577 net.cpp:409] inception_3b/5x5 -> inception_3b/5x5
I0515 19:31:10.208954   577 net.cpp:144] Setting up inception_3b/5x5
I0515 19:31:10.208972   577 net.cpp:151] Top shape: 32 96 28 28 (2408448)
I0515 19:31:10.208979   577 net.cpp:159] Memory required for data: 982647296
I0515 19:31:10.208989   577 layer_factory.hpp:77] Creating layer inception_3b/relu_5x5
I0515 19:31:10.209000   577 net.cpp:94] Creating Layer inception_3b/relu_5x5
I0515 19:31:10.209008   577 net.cpp:435] inception_3b/relu_5x5 <- inception_3b/5x5
I0515 19:31:10.209018   577 net.cpp:396] inception_3b/relu_5x5 -> inception_3b/5x5 (in-place)
I0515 19:31:10.209030   577 net.cpp:144] Setting up inception_3b/relu_5x5
I0515 19:31:10.209039   577 net.cpp:151] Top shape: 32 96 28 28 (2408448)
I0515 19:31:10.209045   577 net.cpp:159] Memory required for data: 992281088
I0515 19:31:10.209053   577 layer_factory.hpp:77] Creating layer inception_3b/pool
I0515 19:31:10.209064   577 net.cpp:94] Creating Layer inception_3b/pool
I0515 19:31:10.209072   577 net.cpp:435] inception_3b/pool <- inception_3a/output_inception_3a/output_0_split_3
I0515 19:31:10.209084   577 net.cpp:409] inception_3b/pool -> inception_3b/pool
I0515 19:31:10.209154   577 net.cpp:144] Setting up inception_3b/pool
I0515 19:31:10.209168   577 net.cpp:151] Top shape: 32 256 28 28 (6422528)
I0515 19:31:10.209174   577 net.cpp:159] Memory required for data: 1017971200
I0515 19:31:10.209197   577 layer_factory.hpp:77] Creating layer inception_3b/pool_proj
I0515 19:31:10.209213   577 net.cpp:94] Creating Layer inception_3b/pool_proj
I0515 19:31:10.209239   577 net.cpp:435] inception_3b/pool_proj <- inception_3b/pool
I0515 19:31:10.209251   577 net.cpp:409] inception_3b/pool_proj -> inception_3b/pool_proj
I0515 19:31:10.209830   577 net.cpp:144] Setting up inception_3b/pool_proj
I0515 19:31:10.209848   577 net.cpp:151] Top shape: 32 64 28 28 (1605632)
I0515 19:31:10.209858   577 net.cpp:159] Memory required for data: 1024393728
I0515 19:31:10.209869   577 layer_factory.hpp:77] Creating layer inception_3b/relu_pool_proj
I0515 19:31:10.209882   577 net.cpp:94] Creating Layer inception_3b/relu_pool_proj
I0515 19:31:10.209914   577 net.cpp:435] inception_3b/relu_pool_proj <- inception_3b/pool_proj
I0515 19:31:10.209928   577 net.cpp:396] inception_3b/relu_pool_proj -> inception_3b/pool_proj (in-place)
I0515 19:31:10.209940   577 net.cpp:144] Setting up inception_3b/relu_pool_proj
I0515 19:31:10.209949   577 net.cpp:151] Top shape: 32 64 28 28 (1605632)
I0515 19:31:10.209955   577 net.cpp:159] Memory required for data: 1030816256
I0515 19:31:10.209964   577 layer_factory.hpp:77] Creating layer inception_3b/output
I0515 19:31:10.209975   577 net.cpp:94] Creating Layer inception_3b/output
I0515 19:31:10.209982   577 net.cpp:435] inception_3b/output <- inception_3b/1x1
I0515 19:31:10.209991   577 net.cpp:435] inception_3b/output <- inception_3b/3x3
I0515 19:31:10.210000   577 net.cpp:435] inception_3b/output <- inception_3b/5x5
I0515 19:31:10.210008   577 net.cpp:435] inception_3b/output <- inception_3b/pool_proj
I0515 19:31:10.210024   577 net.cpp:409] inception_3b/output -> inception_3b/output
I0515 19:31:10.210080   577 net.cpp:144] Setting up inception_3b/output
I0515 19:31:10.210098   577 net.cpp:151] Top shape: 32 480 28 28 (12042240)
I0515 19:31:10.210134   577 net.cpp:159] Memory required for data: 1078985216
I0515 19:31:10.210144   577 layer_factory.hpp:77] Creating layer pool3/3x3_s2
I0515 19:31:10.210155   577 net.cpp:94] Creating Layer pool3/3x3_s2
I0515 19:31:10.210162   577 net.cpp:435] pool3/3x3_s2 <- inception_3b/output
I0515 19:31:10.210175   577 net.cpp:409] pool3/3x3_s2 -> pool3/3x3_s2
I0515 19:31:10.210258   577 net.cpp:144] Setting up pool3/3x3_s2
I0515 19:31:10.210270   577 net.cpp:151] Top shape: 32 480 14 14 (3010560)
I0515 19:31:10.210278   577 net.cpp:159] Memory required for data: 1091027456
I0515 19:31:10.210284   577 layer_factory.hpp:77] Creating layer pool3/3x3_s2_pool3/3x3_s2_0_split
I0515 19:31:10.210297   577 net.cpp:94] Creating Layer pool3/3x3_s2_pool3/3x3_s2_0_split
I0515 19:31:10.210305   577 net.cpp:435] pool3/3x3_s2_pool3/3x3_s2_0_split <- pool3/3x3_s2
I0515 19:31:10.210315   577 net.cpp:409] pool3/3x3_s2_pool3/3x3_s2_0_split -> pool3/3x3_s2_pool3/3x3_s2_0_split_0
I0515 19:31:10.210328   577 net.cpp:409] pool3/3x3_s2_pool3/3x3_s2_0_split -> pool3/3x3_s2_pool3/3x3_s2_0_split_1
I0515 19:31:10.210340   577 net.cpp:409] pool3/3x3_s2_pool3/3x3_s2_0_split -> pool3/3x3_s2_pool3/3x3_s2_0_split_2
I0515 19:31:10.210351   577 net.cpp:409] pool3/3x3_s2_pool3/3x3_s2_0_split -> pool3/3x3_s2_pool3/3x3_s2_0_split_3
I0515 19:31:10.210438   577 net.cpp:144] Setting up pool3/3x3_s2_pool3/3x3_s2_0_split
I0515 19:31:10.210450   577 net.cpp:151] Top shape: 32 480 14 14 (3010560)
I0515 19:31:10.210458   577 net.cpp:151] Top shape: 32 480 14 14 (3010560)
I0515 19:31:10.210466   577 net.cpp:151] Top shape: 32 480 14 14 (3010560)
I0515 19:31:10.210474   577 net.cpp:151] Top shape: 32 480 14 14 (3010560)
I0515 19:31:10.210480   577 net.cpp:159] Memory required for data: 1139196416
I0515 19:31:10.210489   577 layer_factory.hpp:77] Creating layer inception_4a/1x1
I0515 19:31:10.210503   577 net.cpp:94] Creating Layer inception_4a/1x1
I0515 19:31:10.210510   577 net.cpp:435] inception_4a/1x1 <- pool3/3x3_s2_pool3/3x3_s2_0_split_0
I0515 19:31:10.210522   577 net.cpp:409] inception_4a/1x1 -> inception_4a/1x1
I0515 19:31:10.211879   577 net.cpp:144] Setting up inception_4a/1x1
I0515 19:31:10.211907   577 net.cpp:151] Top shape: 32 192 14 14 (1204224)
I0515 19:31:10.211915   577 net.cpp:159] Memory required for data: 1144013312
I0515 19:31:10.211926   577 layer_factory.hpp:77] Creating layer inception_4a/relu_1x1
I0515 19:31:10.211938   577 net.cpp:94] Creating Layer inception_4a/relu_1x1
I0515 19:31:10.211946   577 net.cpp:435] inception_4a/relu_1x1 <- inception_4a/1x1
I0515 19:31:10.211957   577 net.cpp:396] inception_4a/relu_1x1 -> inception_4a/1x1 (in-place)
I0515 19:31:10.211973   577 net.cpp:144] Setting up inception_4a/relu_1x1
I0515 19:31:10.211982   577 net.cpp:151] Top shape: 32 192 14 14 (1204224)
I0515 19:31:10.211988   577 net.cpp:159] Memory required for data: 1148830208
I0515 19:31:10.211997   577 layer_factory.hpp:77] Creating layer inception_4a/3x3_reduce
I0515 19:31:10.212010   577 net.cpp:94] Creating Layer inception_4a/3x3_reduce
I0515 19:31:10.212018   577 net.cpp:435] inception_4a/3x3_reduce <- pool3/3x3_s2_pool3/3x3_s2_0_split_1
I0515 19:31:10.212031   577 net.cpp:409] inception_4a/3x3_reduce -> inception_4a/3x3_reduce
I0515 19:31:10.213860   577 net.cpp:144] Setting up inception_4a/3x3_reduce
I0515 19:31:10.213881   577 net.cpp:151] Top shape: 32 96 14 14 (602112)
I0515 19:31:10.213899   577 net.cpp:159] Memory required for data: 1151238656
I0515 19:31:10.213920   577 layer_factory.hpp:77] Creating layer inception_4a/relu_3x3_reduce
I0515 19:31:10.213934   577 net.cpp:94] Creating Layer inception_4a/relu_3x3_reduce
I0515 19:31:10.213943   577 net.cpp:435] inception_4a/relu_3x3_reduce <- inception_4a/3x3_reduce
I0515 19:31:10.213954   577 net.cpp:396] inception_4a/relu_3x3_reduce -> inception_4a/3x3_reduce (in-place)
I0515 19:31:10.213969   577 net.cpp:144] Setting up inception_4a/relu_3x3_reduce
I0515 19:31:10.213979   577 net.cpp:151] Top shape: 32 96 14 14 (602112)
I0515 19:31:10.213986   577 net.cpp:159] Memory required for data: 1153647104
I0515 19:31:10.214015   577 layer_factory.hpp:77] Creating layer inception_4a/3x3
I0515 19:31:10.214032   577 net.cpp:94] Creating Layer inception_4a/3x3
I0515 19:31:10.214040   577 net.cpp:435] inception_4a/3x3 <- inception_4a/3x3_reduce
I0515 19:31:10.214052   577 net.cpp:409] inception_4a/3x3 -> inception_4a/3x3
I0515 19:31:10.216431   577 net.cpp:144] Setting up inception_4a/3x3
I0515 19:31:10.216454   577 net.cpp:151] Top shape: 32 208 14 14 (1304576)
I0515 19:31:10.216461   577 net.cpp:159] Memory required for data: 1158865408
I0515 19:31:10.216473   577 layer_factory.hpp:77] Creating layer inception_4a/relu_3x3
I0515 19:31:10.216485   577 net.cpp:94] Creating Layer inception_4a/relu_3x3
I0515 19:31:10.216493   577 net.cpp:435] inception_4a/relu_3x3 <- inception_4a/3x3
I0515 19:31:10.216504   577 net.cpp:396] inception_4a/relu_3x3 -> inception_4a/3x3 (in-place)
I0515 19:31:10.216518   577 net.cpp:144] Setting up inception_4a/relu_3x3
I0515 19:31:10.216527   577 net.cpp:151] Top shape: 32 208 14 14 (1304576)
I0515 19:31:10.216534   577 net.cpp:159] Memory required for data: 1164083712
I0515 19:31:10.216542   577 layer_factory.hpp:77] Creating layer inception_4a/5x5_reduce
I0515 19:31:10.216557   577 net.cpp:94] Creating Layer inception_4a/5x5_reduce
I0515 19:31:10.216565   577 net.cpp:435] inception_4a/5x5_reduce <- pool3/3x3_s2_pool3/3x3_s2_0_split_2
I0515 19:31:10.216578   577 net.cpp:409] inception_4a/5x5_reduce -> inception_4a/5x5_reduce
I0515 19:31:10.217025   577 net.cpp:144] Setting up inception_4a/5x5_reduce
I0515 19:31:10.217041   577 net.cpp:151] Top shape: 32 16 14 14 (100352)
I0515 19:31:10.217048   577 net.cpp:159] Memory required for data: 1164485120
I0515 19:31:10.217061   577 layer_factory.hpp:77] Creating layer inception_4a/relu_5x5_reduce
I0515 19:31:10.217072   577 net.cpp:94] Creating Layer inception_4a/relu_5x5_reduce
I0515 19:31:10.217079   577 net.cpp:435] inception_4a/relu_5x5_reduce <- inception_4a/5x5_reduce
I0515 19:31:10.217090   577 net.cpp:396] inception_4a/relu_5x5_reduce -> inception_4a/5x5_reduce (in-place)
I0515 19:31:10.217103   577 net.cpp:144] Setting up inception_4a/relu_5x5_reduce
I0515 19:31:10.217111   577 net.cpp:151] Top shape: 32 16 14 14 (100352)
I0515 19:31:10.217118   577 net.cpp:159] Memory required for data: 1164886528
I0515 19:31:10.217125   577 layer_factory.hpp:77] Creating layer inception_4a/5x5
I0515 19:31:10.217141   577 net.cpp:94] Creating Layer inception_4a/5x5
I0515 19:31:10.217149   577 net.cpp:435] inception_4a/5x5 <- inception_4a/5x5_reduce
I0515 19:31:10.217160   577 net.cpp:409] inception_4a/5x5 -> inception_4a/5x5
I0515 19:31:10.217814   577 net.cpp:144] Setting up inception_4a/5x5
I0515 19:31:10.217831   577 net.cpp:151] Top shape: 32 48 14 14 (301056)
I0515 19:31:10.217839   577 net.cpp:159] Memory required for data: 1166090752
I0515 19:31:10.217850   577 layer_factory.hpp:77] Creating layer inception_4a/relu_5x5
I0515 19:31:10.217861   577 net.cpp:94] Creating Layer inception_4a/relu_5x5
I0515 19:31:10.217869   577 net.cpp:435] inception_4a/relu_5x5 <- inception_4a/5x5
I0515 19:31:10.217881   577 net.cpp:396] inception_4a/relu_5x5 -> inception_4a/5x5 (in-place)
I0515 19:31:10.217902   577 net.cpp:144] Setting up inception_4a/relu_5x5
I0515 19:31:10.217913   577 net.cpp:151] Top shape: 32 48 14 14 (301056)
I0515 19:31:10.217921   577 net.cpp:159] Memory required for data: 1167294976
I0515 19:31:10.217927   577 layer_factory.hpp:77] Creating layer inception_4a/pool
I0515 19:31:10.217939   577 net.cpp:94] Creating Layer inception_4a/pool
I0515 19:31:10.217947   577 net.cpp:435] inception_4a/pool <- pool3/3x3_s2_pool3/3x3_s2_0_split_3
I0515 19:31:10.217958   577 net.cpp:409] inception_4a/pool -> inception_4a/pool
I0515 19:31:10.218032   577 net.cpp:144] Setting up inception_4a/pool
I0515 19:31:10.218046   577 net.cpp:151] Top shape: 32 480 14 14 (3010560)
I0515 19:31:10.218053   577 net.cpp:159] Memory required for data: 1179337216
I0515 19:31:10.218060   577 layer_factory.hpp:77] Creating layer inception_4a/pool_proj
I0515 19:31:10.218104   577 net.cpp:94] Creating Layer inception_4a/pool_proj
I0515 19:31:10.218114   577 net.cpp:435] inception_4a/pool_proj <- inception_4a/pool
I0515 19:31:10.218128   577 net.cpp:409] inception_4a/pool_proj -> inception_4a/pool_proj
I0515 19:31:10.219866   577 net.cpp:144] Setting up inception_4a/pool_proj
I0515 19:31:10.219898   577 net.cpp:151] Top shape: 32 64 14 14 (401408)
I0515 19:31:10.219907   577 net.cpp:159] Memory required for data: 1180942848
I0515 19:31:10.219920   577 layer_factory.hpp:77] Creating layer inception_4a/relu_pool_proj
I0515 19:31:10.219933   577 net.cpp:94] Creating Layer inception_4a/relu_pool_proj
I0515 19:31:10.219944   577 net.cpp:435] inception_4a/relu_pool_proj <- inception_4a/pool_proj
I0515 19:31:10.219955   577 net.cpp:396] inception_4a/relu_pool_proj -> inception_4a/pool_proj (in-place)
I0515 19:31:10.219970   577 net.cpp:144] Setting up inception_4a/relu_pool_proj
I0515 19:31:10.219988   577 net.cpp:151] Top shape: 32 64 14 14 (401408)
I0515 19:31:10.219998   577 net.cpp:159] Memory required for data: 1182548480
I0515 19:31:10.220010   577 layer_factory.hpp:77] Creating layer inception_4a/output
I0515 19:31:10.220022   577 net.cpp:94] Creating Layer inception_4a/output
I0515 19:31:10.220032   577 net.cpp:435] inception_4a/output <- inception_4a/1x1
I0515 19:31:10.220059   577 net.cpp:435] inception_4a/output <- inception_4a/3x3
I0515 19:31:10.220073   577 net.cpp:435] inception_4a/output <- inception_4a/5x5
I0515 19:31:10.220084   577 net.cpp:435] inception_4a/output <- inception_4a/pool_proj
I0515 19:31:10.220099   577 net.cpp:409] inception_4a/output -> inception_4a/output
I0515 19:31:10.220155   577 net.cpp:144] Setting up inception_4a/output
I0515 19:31:10.220170   577 net.cpp:151] Top shape: 32 512 14 14 (3211264)
I0515 19:31:10.220176   577 net.cpp:159] Memory required for data: 1195393536
I0515 19:31:10.220185   577 layer_factory.hpp:77] Creating layer inception_4a/output_inception_4a/output_0_split
I0515 19:31:10.220198   577 net.cpp:94] Creating Layer inception_4a/output_inception_4a/output_0_split
I0515 19:31:10.220206   577 net.cpp:435] inception_4a/output_inception_4a/output_0_split <- inception_4a/output
I0515 19:31:10.220218   577 net.cpp:409] inception_4a/output_inception_4a/output_0_split -> inception_4a/output_inception_4a/output_0_split_0
I0515 19:31:10.220232   577 net.cpp:409] inception_4a/output_inception_4a/output_0_split -> inception_4a/output_inception_4a/output_0_split_1
I0515 19:31:10.220247   577 net.cpp:409] inception_4a/output_inception_4a/output_0_split -> inception_4a/output_inception_4a/output_0_split_2
I0515 19:31:10.220261   577 net.cpp:409] inception_4a/output_inception_4a/output_0_split -> inception_4a/output_inception_4a/output_0_split_3
I0515 19:31:10.220274   577 net.cpp:409] inception_4a/output_inception_4a/output_0_split -> inception_4a/output_inception_4a/output_0_split_4
I0515 19:31:10.220371   577 net.cpp:144] Setting up inception_4a/output_inception_4a/output_0_split
I0515 19:31:10.220384   577 net.cpp:151] Top shape: 32 512 14 14 (3211264)
I0515 19:31:10.220393   577 net.cpp:151] Top shape: 32 512 14 14 (3211264)
I0515 19:31:10.220402   577 net.cpp:151] Top shape: 32 512 14 14 (3211264)
I0515 19:31:10.220412   577 net.cpp:151] Top shape: 32 512 14 14 (3211264)
I0515 19:31:10.220420   577 net.cpp:151] Top shape: 32 512 14 14 (3211264)
I0515 19:31:10.220427   577 net.cpp:159] Memory required for data: 1259618816
I0515 19:31:10.220435   577 layer_factory.hpp:77] Creating layer loss1/ave_pool
I0515 19:31:10.220446   577 net.cpp:94] Creating Layer loss1/ave_pool
I0515 19:31:10.220455   577 net.cpp:435] loss1/ave_pool <- inception_4a/output_inception_4a/output_0_split_0
I0515 19:31:10.220468   577 net.cpp:409] loss1/ave_pool -> loss1/ave_pool
I0515 19:31:10.220527   577 net.cpp:144] Setting up loss1/ave_pool
I0515 19:31:10.220541   577 net.cpp:151] Top shape: 32 512 4 4 (262144)
I0515 19:31:10.220547   577 net.cpp:159] Memory required for data: 1260667392
I0515 19:31:10.220554   577 layer_factory.hpp:77] Creating layer loss1/conv
I0515 19:31:10.220595   577 net.cpp:94] Creating Layer loss1/conv
I0515 19:31:10.220604   577 net.cpp:435] loss1/conv <- loss1/ave_pool
I0515 19:31:10.220618   577 net.cpp:409] loss1/conv -> loss1/conv
I0515 19:31:10.221626   577 net.cpp:144] Setting up loss1/conv
I0515 19:31:10.221659   577 net.cpp:151] Top shape: 32 128 4 4 (65536)
I0515 19:31:10.221668   577 net.cpp:159] Memory required for data: 1260929536
I0515 19:31:10.221680   577 layer_factory.hpp:77] Creating layer loss1/relu_conv
I0515 19:31:10.221693   577 net.cpp:94] Creating Layer loss1/relu_conv
I0515 19:31:10.221700   577 net.cpp:435] loss1/relu_conv <- loss1/conv
I0515 19:31:10.221711   577 net.cpp:396] loss1/relu_conv -> loss1/conv (in-place)
I0515 19:31:10.221724   577 net.cpp:144] Setting up loss1/relu_conv
I0515 19:31:10.221735   577 net.cpp:151] Top shape: 32 128 4 4 (65536)
I0515 19:31:10.221741   577 net.cpp:159] Memory required for data: 1261191680
I0515 19:31:10.221750   577 layer_factory.hpp:77] Creating layer loss1/fc
I0515 19:31:10.221765   577 net.cpp:94] Creating Layer loss1/fc
I0515 19:31:10.221772   577 net.cpp:435] loss1/fc <- loss1/conv
I0515 19:31:10.221784   577 net.cpp:409] loss1/fc -> loss1/fc
I0515 19:31:10.244124   577 net.cpp:144] Setting up loss1/fc
I0515 19:31:10.244145   577 net.cpp:151] Top shape: 32 1024 (32768)
I0515 19:31:10.244151   577 net.cpp:159] Memory required for data: 1261322752
I0515 19:31:10.244163   577 layer_factory.hpp:77] Creating layer loss1/relu_fc
I0515 19:31:10.244189   577 net.cpp:94] Creating Layer loss1/relu_fc
I0515 19:31:10.244197   577 net.cpp:435] loss1/relu_fc <- loss1/fc
I0515 19:31:10.244207   577 net.cpp:396] loss1/relu_fc -> loss1/fc (in-place)
I0515 19:31:10.244221   577 net.cpp:144] Setting up loss1/relu_fc
I0515 19:31:10.244230   577 net.cpp:151] Top shape: 32 1024 (32768)
I0515 19:31:10.244235   577 net.cpp:159] Memory required for data: 1261453824
I0515 19:31:10.244241   577 layer_factory.hpp:77] Creating layer loss1/drop_fc
I0515 19:31:10.244267   577 net.cpp:94] Creating Layer loss1/drop_fc
I0515 19:31:10.244274   577 net.cpp:435] loss1/drop_fc <- loss1/fc
I0515 19:31:10.244282   577 net.cpp:396] loss1/drop_fc -> loss1/fc (in-place)
I0515 19:31:10.244336   577 net.cpp:144] Setting up loss1/drop_fc
I0515 19:31:10.244347   577 net.cpp:151] Top shape: 32 1024 (32768)
I0515 19:31:10.244354   577 net.cpp:159] Memory required for data: 1261584896
I0515 19:31:10.244360   577 layer_factory.hpp:77] Creating layer loss1/classifier
I0515 19:31:10.244390   577 net.cpp:94] Creating Layer loss1/classifier
I0515 19:31:10.244419   577 net.cpp:435] loss1/classifier <- loss1/fc
I0515 19:31:10.244431   577 net.cpp:409] loss1/classifier -> loss1/classifier
I0515 19:31:10.244674   577 net.cpp:144] Setting up loss1/classifier
I0515 19:31:10.244704   577 net.cpp:151] Top shape: 32 3 (96)
I0515 19:31:10.244724   577 net.cpp:159] Memory required for data: 1261585280
I0515 19:31:10.244735   577 layer_factory.hpp:77] Creating layer loss1/loss
I0515 19:31:10.244747   577 net.cpp:94] Creating Layer loss1/loss
I0515 19:31:10.244771   577 net.cpp:435] loss1/loss <- loss1/classifier
I0515 19:31:10.244779   577 net.cpp:435] loss1/loss <- label_train-data_1_split_0
I0515 19:31:10.244789   577 net.cpp:409] loss1/loss -> loss1/loss
I0515 19:31:10.244807   577 layer_factory.hpp:77] Creating layer loss1/loss
I0515 19:31:10.244957   577 net.cpp:144] Setting up loss1/loss
I0515 19:31:10.244985   577 net.cpp:151] Top shape: (1)
I0515 19:31:10.244992   577 net.cpp:154]     with loss weight 0.3
I0515 19:31:10.245090   577 net.cpp:159] Memory required for data: 1261585284
I0515 19:31:10.245098   577 layer_factory.hpp:77] Creating layer inception_4b/1x1
I0515 19:31:10.245115   577 net.cpp:94] Creating Layer inception_4b/1x1
I0515 19:31:10.245137   577 net.cpp:435] inception_4b/1x1 <- inception_4a/output_inception_4a/output_0_split_1
I0515 19:31:10.245151   577 net.cpp:409] inception_4b/1x1 -> inception_4b/1x1
I0515 19:31:10.246356   577 net.cpp:144] Setting up inception_4b/1x1
I0515 19:31:10.246387   577 net.cpp:151] Top shape: 32 160 14 14 (1003520)
I0515 19:31:10.246417   577 net.cpp:159] Memory required for data: 1265599364
I0515 19:31:10.246429   577 layer_factory.hpp:77] Creating layer inception_4b/relu_1x1
I0515 19:31:10.246440   577 net.cpp:94] Creating Layer inception_4b/relu_1x1
I0515 19:31:10.246448   577 net.cpp:435] inception_4b/relu_1x1 <- inception_4b/1x1
I0515 19:31:10.246459   577 net.cpp:396] inception_4b/relu_1x1 -> inception_4b/1x1 (in-place)
I0515 19:31:10.246470   577 net.cpp:144] Setting up inception_4b/relu_1x1
I0515 19:31:10.246479   577 net.cpp:151] Top shape: 32 160 14 14 (1003520)
I0515 19:31:10.246484   577 net.cpp:159] Memory required for data: 1269613444
I0515 19:31:10.246490   577 layer_factory.hpp:77] Creating layer inception_4b/3x3_reduce
I0515 19:31:10.246505   577 net.cpp:94] Creating Layer inception_4b/3x3_reduce
I0515 19:31:10.246511   577 net.cpp:435] inception_4b/3x3_reduce <- inception_4a/output_inception_4a/output_0_split_2
I0515 19:31:10.246522   577 net.cpp:409] inception_4b/3x3_reduce -> inception_4b/3x3_reduce
I0515 19:31:10.247407   577 net.cpp:144] Setting up inception_4b/3x3_reduce
I0515 19:31:10.247424   577 net.cpp:151] Top shape: 32 112 14 14 (702464)
I0515 19:31:10.247431   577 net.cpp:159] Memory required for data: 1272423300
I0515 19:31:10.247440   577 layer_factory.hpp:77] Creating layer inception_4b/relu_3x3_reduce
I0515 19:31:10.247452   577 net.cpp:94] Creating Layer inception_4b/relu_3x3_reduce
I0515 19:31:10.247458   577 net.cpp:435] inception_4b/relu_3x3_reduce <- inception_4b/3x3_reduce
I0515 19:31:10.247468   577 net.cpp:396] inception_4b/relu_3x3_reduce -> inception_4b/3x3_reduce (in-place)
I0515 19:31:10.247480   577 net.cpp:144] Setting up inception_4b/relu_3x3_reduce
I0515 19:31:10.247488   577 net.cpp:151] Top shape: 32 112 14 14 (702464)
I0515 19:31:10.247494   577 net.cpp:159] Memory required for data: 1275233156
I0515 19:31:10.247500   577 layer_factory.hpp:77] Creating layer inception_4b/3x3
I0515 19:31:10.247514   577 net.cpp:94] Creating Layer inception_4b/3x3
I0515 19:31:10.247521   577 net.cpp:435] inception_4b/3x3 <- inception_4b/3x3_reduce
I0515 19:31:10.247532   577 net.cpp:409] inception_4b/3x3 -> inception_4b/3x3
I0515 19:31:10.251348   577 net.cpp:144] Setting up inception_4b/3x3
I0515 19:31:10.251384   577 net.cpp:151] Top shape: 32 224 14 14 (1404928)
I0515 19:31:10.251410   577 net.cpp:159] Memory required for data: 1280852868
I0515 19:31:10.251425   577 layer_factory.hpp:77] Creating layer inception_4b/relu_3x3
I0515 19:31:10.251436   577 net.cpp:94] Creating Layer inception_4b/relu_3x3
I0515 19:31:10.251444   577 net.cpp:435] inception_4b/relu_3x3 <- inception_4b/3x3
I0515 19:31:10.251485   577 net.cpp:396] inception_4b/relu_3x3 -> inception_4b/3x3 (in-place)
I0515 19:31:10.251499   577 net.cpp:144] Setting up inception_4b/relu_3x3
I0515 19:31:10.251508   577 net.cpp:151] Top shape: 32 224 14 14 (1404928)
I0515 19:31:10.251514   577 net.cpp:159] Memory required for data: 1286472580
I0515 19:31:10.251521   577 layer_factory.hpp:77] Creating layer inception_4b/5x5_reduce
I0515 19:31:10.251535   577 net.cpp:94] Creating Layer inception_4b/5x5_reduce
I0515 19:31:10.251543   577 net.cpp:435] inception_4b/5x5_reduce <- inception_4a/output_inception_4a/output_0_split_3
I0515 19:31:10.251555   577 net.cpp:409] inception_4b/5x5_reduce -> inception_4b/5x5_reduce
I0515 19:31:10.252079   577 net.cpp:144] Setting up inception_4b/5x5_reduce
I0515 19:31:10.252099   577 net.cpp:151] Top shape: 32 24 14 14 (150528)
I0515 19:31:10.252104   577 net.cpp:159] Memory required for data: 1287074692
I0515 19:31:10.252115   577 layer_factory.hpp:77] Creating layer inception_4b/relu_5x5_reduce
I0515 19:31:10.252131   577 net.cpp:94] Creating Layer inception_4b/relu_5x5_reduce
I0515 19:31:10.252140   577 net.cpp:435] inception_4b/relu_5x5_reduce <- inception_4b/5x5_reduce
I0515 19:31:10.252149   577 net.cpp:396] inception_4b/relu_5x5_reduce -> inception_4b/5x5_reduce (in-place)
I0515 19:31:10.252162   577 net.cpp:144] Setting up inception_4b/relu_5x5_reduce
I0515 19:31:10.252192   577 net.cpp:151] Top shape: 32 24 14 14 (150528)
I0515 19:31:10.252198   577 net.cpp:159] Memory required for data: 1287676804
I0515 19:31:10.252205   577 layer_factory.hpp:77] Creating layer inception_4b/5x5
I0515 19:31:10.252229   577 net.cpp:94] Creating Layer inception_4b/5x5
I0515 19:31:10.252238   577 net.cpp:435] inception_4b/5x5 <- inception_4b/5x5_reduce
I0515 19:31:10.252249   577 net.cpp:409] inception_4b/5x5 -> inception_4b/5x5
I0515 19:31:10.264358   577 net.cpp:144] Setting up inception_4b/5x5
I0515 19:31:10.264382   577 net.cpp:151] Top shape: 32 64 14 14 (401408)
I0515 19:31:10.264405   577 net.cpp:159] Memory required for data: 1289282436
I0515 19:31:10.264417   577 layer_factory.hpp:77] Creating layer inception_4b/relu_5x5
I0515 19:31:10.264431   577 net.cpp:94] Creating Layer inception_4b/relu_5x5
I0515 19:31:10.264441   577 net.cpp:435] inception_4b/relu_5x5 <- inception_4b/5x5
I0515 19:31:10.264470   577 net.cpp:396] inception_4b/relu_5x5 -> inception_4b/5x5 (in-place)
I0515 19:31:10.264487   577 net.cpp:144] Setting up inception_4b/relu_5x5
I0515 19:31:10.264497   577 net.cpp:151] Top shape: 32 64 14 14 (401408)
I0515 19:31:10.264504   577 net.cpp:159] Memory required for data: 1290888068
I0515 19:31:10.264511   577 layer_factory.hpp:77] Creating layer inception_4b/pool
I0515 19:31:10.264523   577 net.cpp:94] Creating Layer inception_4b/pool
I0515 19:31:10.264533   577 net.cpp:435] inception_4b/pool <- inception_4a/output_inception_4a/output_0_split_4
I0515 19:31:10.264545   577 net.cpp:409] inception_4b/pool -> inception_4b/pool
I0515 19:31:10.264624   577 net.cpp:144] Setting up inception_4b/pool
I0515 19:31:10.264654   577 net.cpp:151] Top shape: 32 512 14 14 (3211264)
I0515 19:31:10.264664   577 net.cpp:159] Memory required for data: 1303733124
I0515 19:31:10.264672   577 layer_factory.hpp:77] Creating layer inception_4b/pool_proj
I0515 19:31:10.264688   577 net.cpp:94] Creating Layer inception_4b/pool_proj
I0515 19:31:10.264698   577 net.cpp:435] inception_4b/pool_proj <- inception_4b/pool
I0515 19:31:10.264710   577 net.cpp:409] inception_4b/pool_proj -> inception_4b/pool_proj
I0515 19:31:10.265415   577 net.cpp:144] Setting up inception_4b/pool_proj
I0515 19:31:10.265435   577 net.cpp:151] Top shape: 32 64 14 14 (401408)
I0515 19:31:10.265444   577 net.cpp:159] Memory required for data: 1305338756
I0515 19:31:10.265455   577 layer_factory.hpp:77] Creating layer inception_4b/relu_pool_proj
I0515 19:31:10.265496   577 net.cpp:94] Creating Layer inception_4b/relu_pool_proj
I0515 19:31:10.265506   577 net.cpp:435] inception_4b/relu_pool_proj <- inception_4b/pool_proj
I0515 19:31:10.265516   577 net.cpp:396] inception_4b/relu_pool_proj -> inception_4b/pool_proj (in-place)
I0515 19:31:10.265530   577 net.cpp:144] Setting up inception_4b/relu_pool_proj
I0515 19:31:10.265540   577 net.cpp:151] Top shape: 32 64 14 14 (401408)
I0515 19:31:10.265547   577 net.cpp:159] Memory required for data: 1306944388
I0515 19:31:10.265554   577 layer_factory.hpp:77] Creating layer inception_4b/output
I0515 19:31:10.265566   577 net.cpp:94] Creating Layer inception_4b/output
I0515 19:31:10.265575   577 net.cpp:435] inception_4b/output <- inception_4b/1x1
I0515 19:31:10.265584   577 net.cpp:435] inception_4b/output <- inception_4b/3x3
I0515 19:31:10.265592   577 net.cpp:435] inception_4b/output <- inception_4b/5x5
I0515 19:31:10.265600   577 net.cpp:435] inception_4b/output <- inception_4b/pool_proj
I0515 19:31:10.265612   577 net.cpp:409] inception_4b/output -> inception_4b/output
I0515 19:31:10.265683   577 net.cpp:144] Setting up inception_4b/output
I0515 19:31:10.265699   577 net.cpp:151] Top shape: 32 512 14 14 (3211264)
I0515 19:31:10.265707   577 net.cpp:159] Memory required for data: 1319789444
I0515 19:31:10.265730   577 layer_factory.hpp:77] Creating layer inception_4b/output_inception_4b/output_0_split
I0515 19:31:10.265743   577 net.cpp:94] Creating Layer inception_4b/output_inception_4b/output_0_split
I0515 19:31:10.265751   577 net.cpp:435] inception_4b/output_inception_4b/output_0_split <- inception_4b/output
I0515 19:31:10.265805   577 net.cpp:409] inception_4b/output_inception_4b/output_0_split -> inception_4b/output_inception_4b/output_0_split_0
I0515 19:31:10.265822   577 net.cpp:409] inception_4b/output_inception_4b/output_0_split -> inception_4b/output_inception_4b/output_0_split_1
I0515 19:31:10.265836   577 net.cpp:409] inception_4b/output_inception_4b/output_0_split -> inception_4b/output_inception_4b/output_0_split_2
I0515 19:31:10.265851   577 net.cpp:409] inception_4b/output_inception_4b/output_0_split -> inception_4b/output_inception_4b/output_0_split_3
I0515 19:31:10.265992   577 net.cpp:144] Setting up inception_4b/output_inception_4b/output_0_split
I0515 19:31:10.266024   577 net.cpp:151] Top shape: 32 512 14 14 (3211264)
I0515 19:31:10.266033   577 net.cpp:151] Top shape: 32 512 14 14 (3211264)
I0515 19:31:10.266043   577 net.cpp:151] Top shape: 32 512 14 14 (3211264)
I0515 19:31:10.266052   577 net.cpp:151] Top shape: 32 512 14 14 (3211264)
I0515 19:31:10.266059   577 net.cpp:159] Memory required for data: 1371169668
I0515 19:31:10.266083   577 layer_factory.hpp:77] Creating layer inception_4c/1x1
I0515 19:31:10.266099   577 net.cpp:94] Creating Layer inception_4c/1x1
I0515 19:31:10.266109   577 net.cpp:435] inception_4c/1x1 <- inception_4b/output_inception_4b/output_0_split_0
I0515 19:31:10.266124   577 net.cpp:409] inception_4c/1x1 -> inception_4c/1x1
I0515 19:31:10.267042   577 net.cpp:144] Setting up inception_4c/1x1
I0515 19:31:10.267061   577 net.cpp:151] Top shape: 32 128 14 14 (802816)
I0515 19:31:10.267069   577 net.cpp:159] Memory required for data: 1374380932
I0515 19:31:10.267081   577 layer_factory.hpp:77] Creating layer inception_4c/relu_1x1
I0515 19:31:10.267093   577 net.cpp:94] Creating Layer inception_4c/relu_1x1
I0515 19:31:10.267102   577 net.cpp:435] inception_4c/relu_1x1 <- inception_4c/1x1
I0515 19:31:10.267113   577 net.cpp:396] inception_4c/relu_1x1 -> inception_4c/1x1 (in-place)
I0515 19:31:10.267128   577 net.cpp:144] Setting up inception_4c/relu_1x1
I0515 19:31:10.267138   577 net.cpp:151] Top shape: 32 128 14 14 (802816)
I0515 19:31:10.267145   577 net.cpp:159] Memory required for data: 1377592196
I0515 19:31:10.267153   577 layer_factory.hpp:77] Creating layer inception_4c/3x3_reduce
I0515 19:31:10.267169   577 net.cpp:94] Creating Layer inception_4c/3x3_reduce
I0515 19:31:10.267181   577 net.cpp:435] inception_4c/3x3_reduce <- inception_4b/output_inception_4b/output_0_split_1
I0515 19:31:10.267196   577 net.cpp:409] inception_4c/3x3_reduce -> inception_4c/3x3_reduce
I0515 19:31:10.268151   577 net.cpp:144] Setting up inception_4c/3x3_reduce
I0515 19:31:10.268187   577 net.cpp:151] Top shape: 32 128 14 14 (802816)
I0515 19:31:10.268194   577 net.cpp:159] Memory required for data: 1380803460
I0515 19:31:10.268208   577 layer_factory.hpp:77] Creating layer inception_4c/relu_3x3_reduce
I0515 19:31:10.268220   577 net.cpp:94] Creating Layer inception_4c/relu_3x3_reduce
I0515 19:31:10.268230   577 net.cpp:435] inception_4c/relu_3x3_reduce <- inception_4c/3x3_reduce
I0515 19:31:10.268242   577 net.cpp:396] inception_4c/relu_3x3_reduce -> inception_4c/3x3_reduce (in-place)
I0515 19:31:10.268257   577 net.cpp:144] Setting up inception_4c/relu_3x3_reduce
I0515 19:31:10.268285   577 net.cpp:151] Top shape: 32 128 14 14 (802816)
I0515 19:31:10.268290   577 net.cpp:159] Memory required for data: 1384014724
I0515 19:31:10.268297   577 layer_factory.hpp:77] Creating layer inception_4c/3x3
I0515 19:31:10.268314   577 net.cpp:94] Creating Layer inception_4c/3x3
I0515 19:31:10.268323   577 net.cpp:435] inception_4c/3x3 <- inception_4c/3x3_reduce
I0515 19:31:10.268337   577 net.cpp:409] inception_4c/3x3 -> inception_4c/3x3
I0515 19:31:10.282845   577 net.cpp:144] Setting up inception_4c/3x3
I0515 19:31:10.282867   577 net.cpp:151] Top shape: 32 256 14 14 (1605632)
I0515 19:31:10.282876   577 net.cpp:159] Memory required for data: 1390437252
I0515 19:31:10.282939   577 layer_factory.hpp:77] Creating layer inception_4c/relu_3x3
I0515 19:31:10.282955   577 net.cpp:94] Creating Layer inception_4c/relu_3x3
I0515 19:31:10.282984   577 net.cpp:435] inception_4c/relu_3x3 <- inception_4c/3x3
I0515 19:31:10.282999   577 net.cpp:396] inception_4c/relu_3x3 -> inception_4c/3x3 (in-place)
I0515 19:31:10.283016   577 net.cpp:144] Setting up inception_4c/relu_3x3
I0515 19:31:10.283028   577 net.cpp:151] Top shape: 32 256 14 14 (1605632)
I0515 19:31:10.283035   577 net.cpp:159] Memory required for data: 1396859780
I0515 19:31:10.283042   577 layer_factory.hpp:77] Creating layer inception_4c/5x5_reduce
I0515 19:31:10.283059   577 net.cpp:94] Creating Layer inception_4c/5x5_reduce
I0515 19:31:10.283069   577 net.cpp:435] inception_4c/5x5_reduce <- inception_4b/output_inception_4b/output_0_split_2
I0515 19:31:10.283084   577 net.cpp:409] inception_4c/5x5_reduce -> inception_4c/5x5_reduce
I0515 19:31:10.283569   577 net.cpp:144] Setting up inception_4c/5x5_reduce
I0515 19:31:10.283589   577 net.cpp:151] Top shape: 32 24 14 14 (150528)
I0515 19:31:10.283597   577 net.cpp:159] Memory required for data: 1397461892
I0515 19:31:10.283609   577 layer_factory.hpp:77] Creating layer inception_4c/relu_5x5_reduce
I0515 19:31:10.283623   577 net.cpp:94] Creating Layer inception_4c/relu_5x5_reduce
I0515 19:31:10.283632   577 net.cpp:435] inception_4c/relu_5x5_reduce <- inception_4c/5x5_reduce
I0515 19:31:10.283694   577 net.cpp:396] inception_4c/relu_5x5_reduce -> inception_4c/5x5_reduce (in-place)
I0515 19:31:10.283713   577 net.cpp:144] Setting up inception_4c/relu_5x5_reduce
I0515 19:31:10.283725   577 net.cpp:151] Top shape: 32 24 14 14 (150528)
I0515 19:31:10.283732   577 net.cpp:159] Memory required for data: 1398064004
I0515 19:31:10.283741   577 layer_factory.hpp:77] Creating layer inception_4c/5x5
I0515 19:31:10.283758   577 net.cpp:94] Creating Layer inception_4c/5x5
I0515 19:31:10.283783   577 net.cpp:435] inception_4c/5x5 <- inception_4c/5x5_reduce
I0515 19:31:10.283797   577 net.cpp:409] inception_4c/5x5 -> inception_4c/5x5
I0515 19:31:10.284495   577 net.cpp:144] Setting up inception_4c/5x5
I0515 19:31:10.284514   577 net.cpp:151] Top shape: 32 64 14 14 (401408)
I0515 19:31:10.284523   577 net.cpp:159] Memory required for data: 1399669636
I0515 19:31:10.284535   577 layer_factory.hpp:77] Creating layer inception_4c/relu_5x5
I0515 19:31:10.284548   577 net.cpp:94] Creating Layer inception_4c/relu_5x5
I0515 19:31:10.284557   577 net.cpp:435] inception_4c/relu_5x5 <- inception_4c/5x5
I0515 19:31:10.284569   577 net.cpp:396] inception_4c/relu_5x5 -> inception_4c/5x5 (in-place)
I0515 19:31:10.284584   577 net.cpp:144] Setting up inception_4c/relu_5x5
I0515 19:31:10.284596   577 net.cpp:151] Top shape: 32 64 14 14 (401408)
I0515 19:31:10.284602   577 net.cpp:159] Memory required for data: 1401275268
I0515 19:31:10.284610   577 layer_factory.hpp:77] Creating layer inception_4c/pool
I0515 19:31:10.284623   577 net.cpp:94] Creating Layer inception_4c/pool
I0515 19:31:10.284632   577 net.cpp:435] inception_4c/pool <- inception_4b/output_inception_4b/output_0_split_3
I0515 19:31:10.284659   577 net.cpp:409] inception_4c/pool -> inception_4c/pool
I0515 19:31:10.284729   577 net.cpp:144] Setting up inception_4c/pool
I0515 19:31:10.284744   577 net.cpp:151] Top shape: 32 512 14 14 (3211264)
I0515 19:31:10.284751   577 net.cpp:159] Memory required for data: 1414120324
I0515 19:31:10.284759   577 layer_factory.hpp:77] Creating layer inception_4c/pool_proj
I0515 19:31:10.284776   577 net.cpp:94] Creating Layer inception_4c/pool_proj
I0515 19:31:10.284785   577 net.cpp:435] inception_4c/pool_proj <- inception_4c/pool
I0515 19:31:10.284799   577 net.cpp:409] inception_4c/pool_proj -> inception_4c/pool_proj
I0515 19:31:10.285454   577 net.cpp:144] Setting up inception_4c/pool_proj
I0515 19:31:10.285472   577 net.cpp:151] Top shape: 32 64 14 14 (401408)
I0515 19:31:10.285480   577 net.cpp:159] Memory required for data: 1415725956
I0515 19:31:10.285492   577 layer_factory.hpp:77] Creating layer inception_4c/relu_pool_proj
I0515 19:31:10.285506   577 net.cpp:94] Creating Layer inception_4c/relu_pool_proj
I0515 19:31:10.285514   577 net.cpp:435] inception_4c/relu_pool_proj <- inception_4c/pool_proj
I0515 19:31:10.285548   577 net.cpp:396] inception_4c/relu_pool_proj -> inception_4c/pool_proj (in-place)
I0515 19:31:10.285567   577 net.cpp:144] Setting up inception_4c/relu_pool_proj
I0515 19:31:10.285578   577 net.cpp:151] Top shape: 32 64 14 14 (401408)
I0515 19:31:10.285585   577 net.cpp:159] Memory required for data: 1417331588
I0515 19:31:10.285593   577 layer_factory.hpp:77] Creating layer inception_4c/output
I0515 19:31:10.285605   577 net.cpp:94] Creating Layer inception_4c/output
I0515 19:31:10.285614   577 net.cpp:435] inception_4c/output <- inception_4c/1x1
I0515 19:31:10.285624   577 net.cpp:435] inception_4c/output <- inception_4c/3x3
I0515 19:31:10.285665   577 net.cpp:435] inception_4c/output <- inception_4c/5x5
I0515 19:31:10.285674   577 net.cpp:435] inception_4c/output <- inception_4c/pool_proj
I0515 19:31:10.285686   577 net.cpp:409] inception_4c/output -> inception_4c/output
I0515 19:31:10.285732   577 net.cpp:144] Setting up inception_4c/output
I0515 19:31:10.285746   577 net.cpp:151] Top shape: 32 512 14 14 (3211264)
I0515 19:31:10.285753   577 net.cpp:159] Memory required for data: 1430176644
I0515 19:31:10.285760   577 layer_factory.hpp:77] Creating layer inception_4c/output_inception_4c/output_0_split
I0515 19:31:10.285773   577 net.cpp:94] Creating Layer inception_4c/output_inception_4c/output_0_split
I0515 19:31:10.285782   577 net.cpp:435] inception_4c/output_inception_4c/output_0_split <- inception_4c/output
I0515 19:31:10.285794   577 net.cpp:409] inception_4c/output_inception_4c/output_0_split -> inception_4c/output_inception_4c/output_0_split_0
I0515 19:31:10.285809   577 net.cpp:409] inception_4c/output_inception_4c/output_0_split -> inception_4c/output_inception_4c/output_0_split_1
I0515 19:31:10.285823   577 net.cpp:409] inception_4c/output_inception_4c/output_0_split -> inception_4c/output_inception_4c/output_0_split_2
I0515 19:31:10.285837   577 net.cpp:409] inception_4c/output_inception_4c/output_0_split -> inception_4c/output_inception_4c/output_0_split_3
I0515 19:31:10.285948   577 net.cpp:144] Setting up inception_4c/output_inception_4c/output_0_split
I0515 19:31:10.285996   577 net.cpp:151] Top shape: 32 512 14 14 (3211264)
I0515 19:31:10.286007   577 net.cpp:151] Top shape: 32 512 14 14 (3211264)
I0515 19:31:10.286020   577 net.cpp:151] Top shape: 32 512 14 14 (3211264)
I0515 19:31:10.286028   577 net.cpp:151] Top shape: 32 512 14 14 (3211264)
I0515 19:31:10.286036   577 net.cpp:159] Memory required for data: 1481556868
I0515 19:31:10.286043   577 layer_factory.hpp:77] Creating layer inception_4d/1x1
I0515 19:31:10.286062   577 net.cpp:94] Creating Layer inception_4d/1x1
I0515 19:31:10.286073   577 net.cpp:435] inception_4d/1x1 <- inception_4c/output_inception_4c/output_0_split_0
I0515 19:31:10.286088   577 net.cpp:409] inception_4d/1x1 -> inception_4d/1x1
I0515 19:31:10.288003   577 net.cpp:144] Setting up inception_4d/1x1
I0515 19:31:10.288025   577 net.cpp:151] Top shape: 32 112 14 14 (702464)
I0515 19:31:10.288034   577 net.cpp:159] Memory required for data: 1484366724
I0515 19:31:10.288046   577 layer_factory.hpp:77] Creating layer inception_4d/relu_1x1
I0515 19:31:10.288059   577 net.cpp:94] Creating Layer inception_4d/relu_1x1
I0515 19:31:10.288069   577 net.cpp:435] inception_4d/relu_1x1 <- inception_4d/1x1
I0515 19:31:10.288080   577 net.cpp:396] inception_4d/relu_1x1 -> inception_4d/1x1 (in-place)
I0515 19:31:10.288095   577 net.cpp:144] Setting up inception_4d/relu_1x1
I0515 19:31:10.288106   577 net.cpp:151] Top shape: 32 112 14 14 (702464)
I0515 19:31:10.288113   577 net.cpp:159] Memory required for data: 1487176580
I0515 19:31:10.288120   577 layer_factory.hpp:77] Creating layer inception_4d/3x3_reduce
I0515 19:31:10.288137   577 net.cpp:94] Creating Layer inception_4d/3x3_reduce
I0515 19:31:10.288146   577 net.cpp:435] inception_4d/3x3_reduce <- inception_4c/output_inception_4c/output_0_split_1
I0515 19:31:10.288161   577 net.cpp:409] inception_4d/3x3_reduce -> inception_4d/3x3_reduce
I0515 19:31:10.289153   577 net.cpp:144] Setting up inception_4d/3x3_reduce
I0515 19:31:10.289173   577 net.cpp:151] Top shape: 32 144 14 14 (903168)
I0515 19:31:10.289181   577 net.cpp:159] Memory required for data: 1490789252
I0515 19:31:10.289193   577 layer_factory.hpp:77] Creating layer inception_4d/relu_3x3_reduce
I0515 19:31:10.289206   577 net.cpp:94] Creating Layer inception_4d/relu_3x3_reduce
I0515 19:31:10.289216   577 net.cpp:435] inception_4d/relu_3x3_reduce <- inception_4d/3x3_reduce
I0515 19:31:10.289228   577 net.cpp:396] inception_4d/relu_3x3_reduce -> inception_4d/3x3_reduce (in-place)
I0515 19:31:10.289242   577 net.cpp:144] Setting up inception_4d/relu_3x3_reduce
I0515 19:31:10.289253   577 net.cpp:151] Top shape: 32 144 14 14 (903168)
I0515 19:31:10.289260   577 net.cpp:159] Memory required for data: 1494401924
I0515 19:31:10.289268   577 layer_factory.hpp:77] Creating layer inception_4d/3x3
I0515 19:31:10.289284   577 net.cpp:94] Creating Layer inception_4d/3x3
I0515 19:31:10.289294   577 net.cpp:435] inception_4d/3x3 <- inception_4d/3x3_reduce
I0515 19:31:10.289306   577 net.cpp:409] inception_4d/3x3 -> inception_4d/3x3
I0515 19:31:10.297430   577 net.cpp:144] Setting up inception_4d/3x3
I0515 19:31:10.297454   577 net.cpp:151] Top shape: 32 288 14 14 (1806336)
I0515 19:31:10.297464   577 net.cpp:159] Memory required for data: 1501627268
I0515 19:31:10.297477   577 layer_factory.hpp:77] Creating layer inception_4d/relu_3x3
I0515 19:31:10.297490   577 net.cpp:94] Creating Layer inception_4d/relu_3x3
I0515 19:31:10.297500   577 net.cpp:435] inception_4d/relu_3x3 <- inception_4d/3x3
I0515 19:31:10.297513   577 net.cpp:396] inception_4d/relu_3x3 -> inception_4d/3x3 (in-place)
I0515 19:31:10.297529   577 net.cpp:144] Setting up inception_4d/relu_3x3
I0515 19:31:10.297540   577 net.cpp:151] Top shape: 32 288 14 14 (1806336)
I0515 19:31:10.297547   577 net.cpp:159] Memory required for data: 1508852612
I0515 19:31:10.297555   577 layer_factory.hpp:77] Creating layer inception_4d/5x5_reduce
I0515 19:31:10.297572   577 net.cpp:94] Creating Layer inception_4d/5x5_reduce
I0515 19:31:10.297582   577 net.cpp:435] inception_4d/5x5_reduce <- inception_4c/output_inception_4c/output_0_split_2
I0515 19:31:10.297597   577 net.cpp:409] inception_4d/5x5_reduce -> inception_4d/5x5_reduce
I0515 19:31:10.298128   577 net.cpp:144] Setting up inception_4d/5x5_reduce
I0515 19:31:10.298147   577 net.cpp:151] Top shape: 32 32 14 14 (200704)
I0515 19:31:10.298156   577 net.cpp:159] Memory required for data: 1509655428
I0515 19:31:10.298167   577 layer_factory.hpp:77] Creating layer inception_4d/relu_5x5_reduce
I0515 19:31:10.298180   577 net.cpp:94] Creating Layer inception_4d/relu_5x5_reduce
I0515 19:31:10.298189   577 net.cpp:435] inception_4d/relu_5x5_reduce <- inception_4d/5x5_reduce
I0515 19:31:10.298202   577 net.cpp:396] inception_4d/relu_5x5_reduce -> inception_4d/5x5_reduce (in-place)
I0515 19:31:10.298216   577 net.cpp:144] Setting up inception_4d/relu_5x5_reduce
I0515 19:31:10.298228   577 net.cpp:151] Top shape: 32 32 14 14 (200704)
I0515 19:31:10.298234   577 net.cpp:159] Memory required for data: 1510458244
I0515 19:31:10.298241   577 layer_factory.hpp:77] Creating layer inception_4d/5x5
I0515 19:31:10.298259   577 net.cpp:94] Creating Layer inception_4d/5x5
I0515 19:31:10.298269   577 net.cpp:435] inception_4d/5x5 <- inception_4d/5x5_reduce
I0515 19:31:10.298281   577 net.cpp:409] inception_4d/5x5 -> inception_4d/5x5
I0515 19:31:10.299208   577 net.cpp:144] Setting up inception_4d/5x5
I0515 19:31:10.299228   577 net.cpp:151] Top shape: 32 64 14 14 (401408)
I0515 19:31:10.299237   577 net.cpp:159] Memory required for data: 1512063876
I0515 19:31:10.299249   577 layer_factory.hpp:77] Creating layer inception_4d/relu_5x5
I0515 19:31:10.299263   577 net.cpp:94] Creating Layer inception_4d/relu_5x5
I0515 19:31:10.299270   577 net.cpp:435] inception_4d/relu_5x5 <- inception_4d/5x5
I0515 19:31:10.299283   577 net.cpp:396] inception_4d/relu_5x5 -> inception_4d/5x5 (in-place)
I0515 19:31:10.299298   577 net.cpp:144] Setting up inception_4d/relu_5x5
I0515 19:31:10.299329   577 net.cpp:151] Top shape: 32 64 14 14 (401408)
I0515 19:31:10.299340   577 net.cpp:159] Memory required for data: 1513669508
I0515 19:31:10.299346   577 layer_factory.hpp:77] Creating layer inception_4d/pool
I0515 19:31:10.299360   577 net.cpp:94] Creating Layer inception_4d/pool
I0515 19:31:10.299369   577 net.cpp:435] inception_4d/pool <- inception_4c/output_inception_4c/output_0_split_3
I0515 19:31:10.299381   577 net.cpp:409] inception_4d/pool -> inception_4d/pool
I0515 19:31:10.299460   577 net.cpp:144] Setting up inception_4d/pool
I0515 19:31:10.299476   577 net.cpp:151] Top shape: 32 512 14 14 (3211264)
I0515 19:31:10.299484   577 net.cpp:159] Memory required for data: 1526514564
I0515 19:31:10.299491   577 layer_factory.hpp:77] Creating layer inception_4d/pool_proj
I0515 19:31:10.299509   577 net.cpp:94] Creating Layer inception_4d/pool_proj
I0515 19:31:10.299518   577 net.cpp:435] inception_4d/pool_proj <- inception_4d/pool
I0515 19:31:10.299532   577 net.cpp:409] inception_4d/pool_proj -> inception_4d/pool_proj
I0515 19:31:10.300341   577 net.cpp:144] Setting up inception_4d/pool_proj
I0515 19:31:10.300362   577 net.cpp:151] Top shape: 32 64 14 14 (401408)
I0515 19:31:10.300369   577 net.cpp:159] Memory required for data: 1528120196
I0515 19:31:10.300381   577 layer_factory.hpp:77] Creating layer inception_4d/relu_pool_proj
I0515 19:31:10.300405   577 net.cpp:94] Creating Layer inception_4d/relu_pool_proj
I0515 19:31:10.300415   577 net.cpp:435] inception_4d/relu_pool_proj <- inception_4d/pool_proj
I0515 19:31:10.300426   577 net.cpp:396] inception_4d/relu_pool_proj -> inception_4d/pool_proj (in-place)
I0515 19:31:10.300441   577 net.cpp:144] Setting up inception_4d/relu_pool_proj
I0515 19:31:10.300452   577 net.cpp:151] Top shape: 32 64 14 14 (401408)
I0515 19:31:10.300458   577 net.cpp:159] Memory required for data: 1529725828
I0515 19:31:10.300465   577 layer_factory.hpp:77] Creating layer inception_4d/output
I0515 19:31:10.300477   577 net.cpp:94] Creating Layer inception_4d/output
I0515 19:31:10.300487   577 net.cpp:435] inception_4d/output <- inception_4d/1x1
I0515 19:31:10.300495   577 net.cpp:435] inception_4d/output <- inception_4d/3x3
I0515 19:31:10.300504   577 net.cpp:435] inception_4d/output <- inception_4d/5x5
I0515 19:31:10.300513   577 net.cpp:435] inception_4d/output <- inception_4d/pool_proj
I0515 19:31:10.300523   577 net.cpp:409] inception_4d/output -> inception_4d/output
I0515 19:31:10.300566   577 net.cpp:144] Setting up inception_4d/output
I0515 19:31:10.300580   577 net.cpp:151] Top shape: 32 528 14 14 (3311616)
I0515 19:31:10.300587   577 net.cpp:159] Memory required for data: 1542972292
I0515 19:31:10.300595   577 layer_factory.hpp:77] Creating layer inception_4d/output_inception_4d/output_0_split
I0515 19:31:10.300606   577 net.cpp:94] Creating Layer inception_4d/output_inception_4d/output_0_split
I0515 19:31:10.300616   577 net.cpp:435] inception_4d/output_inception_4d/output_0_split <- inception_4d/output
I0515 19:31:10.300627   577 net.cpp:409] inception_4d/output_inception_4d/output_0_split -> inception_4d/output_inception_4d/output_0_split_0
I0515 19:31:10.300653   577 net.cpp:409] inception_4d/output_inception_4d/output_0_split -> inception_4d/output_inception_4d/output_0_split_1
I0515 19:31:10.300670   577 net.cpp:409] inception_4d/output_inception_4d/output_0_split -> inception_4d/output_inception_4d/output_0_split_2
I0515 19:31:10.300684   577 net.cpp:409] inception_4d/output_inception_4d/output_0_split -> inception_4d/output_inception_4d/output_0_split_3
I0515 19:31:10.300698   577 net.cpp:409] inception_4d/output_inception_4d/output_0_split -> inception_4d/output_inception_4d/output_0_split_4
I0515 19:31:10.300819   577 net.cpp:144] Setting up inception_4d/output_inception_4d/output_0_split
I0515 19:31:10.300835   577 net.cpp:151] Top shape: 32 528 14 14 (3311616)
I0515 19:31:10.300844   577 net.cpp:151] Top shape: 32 528 14 14 (3311616)
I0515 19:31:10.300853   577 net.cpp:151] Top shape: 32 528 14 14 (3311616)
I0515 19:31:10.300860   577 net.cpp:151] Top shape: 32 528 14 14 (3311616)
I0515 19:31:10.300889   577 net.cpp:151] Top shape: 32 528 14 14 (3311616)
I0515 19:31:10.300899   577 net.cpp:159] Memory required for data: 1609204612
I0515 19:31:10.300905   577 layer_factory.hpp:77] Creating layer loss2/ave_pool
I0515 19:31:10.300918   577 net.cpp:94] Creating Layer loss2/ave_pool
I0515 19:31:10.300927   577 net.cpp:435] loss2/ave_pool <- inception_4d/output_inception_4d/output_0_split_0
I0515 19:31:10.300940   577 net.cpp:409] loss2/ave_pool -> loss2/ave_pool
I0515 19:31:10.300987   577 net.cpp:144] Setting up loss2/ave_pool
I0515 19:31:10.301003   577 net.cpp:151] Top shape: 32 528 4 4 (270336)
I0515 19:31:10.301010   577 net.cpp:159] Memory required for data: 1610285956
I0515 19:31:10.301017   577 layer_factory.hpp:77] Creating layer loss2/conv
I0515 19:31:10.301033   577 net.cpp:94] Creating Layer loss2/conv
I0515 19:31:10.301043   577 net.cpp:435] loss2/conv <- loss2/ave_pool
I0515 19:31:10.301056   577 net.cpp:409] loss2/conv -> loss2/conv
I0515 19:31:10.303043   577 net.cpp:144] Setting up loss2/conv
I0515 19:31:10.303063   577 net.cpp:151] Top shape: 32 128 4 4 (65536)
I0515 19:31:10.303072   577 net.cpp:159] Memory required for data: 1610548100
I0515 19:31:10.303084   577 layer_factory.hpp:77] Creating layer loss2/relu_conv
I0515 19:31:10.303097   577 net.cpp:94] Creating Layer loss2/relu_conv
I0515 19:31:10.303107   577 net.cpp:435] loss2/relu_conv <- loss2/conv
I0515 19:31:10.303118   577 net.cpp:396] loss2/relu_conv -> loss2/conv (in-place)
I0515 19:31:10.303133   577 net.cpp:144] Setting up loss2/relu_conv
I0515 19:31:10.303143   577 net.cpp:151] Top shape: 32 128 4 4 (65536)
I0515 19:31:10.303150   577 net.cpp:159] Memory required for data: 1610810244
I0515 19:31:10.303158   577 layer_factory.hpp:77] Creating layer loss2/fc
I0515 19:31:10.303170   577 net.cpp:94] Creating Layer loss2/fc
I0515 19:31:10.303179   577 net.cpp:435] loss2/fc <- loss2/conv
I0515 19:31:10.303191   577 net.cpp:409] loss2/fc -> loss2/fc
I0515 19:31:10.329211   577 net.cpp:144] Setting up loss2/fc
I0515 19:31:10.329234   577 net.cpp:151] Top shape: 32 1024 (32768)
I0515 19:31:10.329241   577 net.cpp:159] Memory required for data: 1610941316
I0515 19:31:10.329253   577 layer_factory.hpp:77] Creating layer loss2/relu_fc
I0515 19:31:10.329265   577 net.cpp:94] Creating Layer loss2/relu_fc
I0515 19:31:10.329273   577 net.cpp:435] loss2/relu_fc <- loss2/fc
I0515 19:31:10.329284   577 net.cpp:396] loss2/relu_fc -> loss2/fc (in-place)
I0515 19:31:10.329298   577 net.cpp:144] Setting up loss2/relu_fc
I0515 19:31:10.329306   577 net.cpp:151] Top shape: 32 1024 (32768)
I0515 19:31:10.329313   577 net.cpp:159] Memory required for data: 1611072388
I0515 19:31:10.329319   577 layer_factory.hpp:77] Creating layer loss2/drop_fc
I0515 19:31:10.329330   577 net.cpp:94] Creating Layer loss2/drop_fc
I0515 19:31:10.329337   577 net.cpp:435] loss2/drop_fc <- loss2/fc
I0515 19:31:10.329362   577 net.cpp:396] loss2/drop_fc -> loss2/fc (in-place)
I0515 19:31:10.329416   577 net.cpp:144] Setting up loss2/drop_fc
I0515 19:31:10.329427   577 net.cpp:151] Top shape: 32 1024 (32768)
I0515 19:31:10.329433   577 net.cpp:159] Memory required for data: 1611203460
I0515 19:31:10.329440   577 layer_factory.hpp:77] Creating layer loss2/classifier
I0515 19:31:10.329453   577 net.cpp:94] Creating Layer loss2/classifier
I0515 19:31:10.329460   577 net.cpp:435] loss2/classifier <- loss2/fc
I0515 19:31:10.329471   577 net.cpp:409] loss2/classifier -> loss2/classifier
I0515 19:31:10.329653   577 net.cpp:144] Setting up loss2/classifier
I0515 19:31:10.329681   577 net.cpp:151] Top shape: 32 3 (96)
I0515 19:31:10.329687   577 net.cpp:159] Memory required for data: 1611203844
I0515 19:31:10.329699   577 layer_factory.hpp:77] Creating layer loss2/loss
I0515 19:31:10.329710   577 net.cpp:94] Creating Layer loss2/loss
I0515 19:31:10.329717   577 net.cpp:435] loss2/loss <- loss2/classifier
I0515 19:31:10.329741   577 net.cpp:435] loss2/loss <- label_train-data_1_split_1
I0515 19:31:10.329751   577 net.cpp:409] loss2/loss -> loss2/loss
I0515 19:31:10.329803   577 layer_factory.hpp:77] Creating layer loss2/loss
I0515 19:31:10.330003   577 net.cpp:144] Setting up loss2/loss
I0515 19:31:10.330018   577 net.cpp:151] Top shape: (1)
I0515 19:31:10.330024   577 net.cpp:154]     with loss weight 0.3
I0515 19:31:10.330042   577 net.cpp:159] Memory required for data: 1611203848
I0515 19:31:10.330050   577 layer_factory.hpp:77] Creating layer inception_4e/1x1
I0515 19:31:10.330082   577 net.cpp:94] Creating Layer inception_4e/1x1
I0515 19:31:10.330090   577 net.cpp:435] inception_4e/1x1 <- inception_4d/output_inception_4d/output_0_split_1
I0515 19:31:10.330107   577 net.cpp:409] inception_4e/1x1 -> inception_4e/1x1
I0515 19:31:10.332094   577 net.cpp:144] Setting up inception_4e/1x1
I0515 19:31:10.332114   577 net.cpp:151] Top shape: 32 256 14 14 (1605632)
I0515 19:31:10.332136   577 net.cpp:159] Memory required for data: 1617626376
I0515 19:31:10.332147   577 layer_factory.hpp:77] Creating layer inception_4e/relu_1x1
I0515 19:31:10.332173   577 net.cpp:94] Creating Layer inception_4e/relu_1x1
I0515 19:31:10.332180   577 net.cpp:435] inception_4e/relu_1x1 <- inception_4e/1x1
I0515 19:31:10.332195   577 net.cpp:396] inception_4e/relu_1x1 -> inception_4e/1x1 (in-place)
I0515 19:31:10.332208   577 net.cpp:144] Setting up inception_4e/relu_1x1
I0515 19:31:10.332217   577 net.cpp:151] Top shape: 32 256 14 14 (1605632)
I0515 19:31:10.332223   577 net.cpp:159] Memory required for data: 1624048904
I0515 19:31:10.332229   577 layer_factory.hpp:77] Creating layer inception_4e/3x3_reduce
I0515 19:31:10.332247   577 net.cpp:94] Creating Layer inception_4e/3x3_reduce
I0515 19:31:10.332254   577 net.cpp:435] inception_4e/3x3_reduce <- inception_4d/output_inception_4d/output_0_split_2
I0515 19:31:10.332265   577 net.cpp:409] inception_4e/3x3_reduce -> inception_4e/3x3_reduce
I0515 19:31:10.334520   577 net.cpp:144] Setting up inception_4e/3x3_reduce
I0515 19:31:10.334542   577 net.cpp:151] Top shape: 32 160 14 14 (1003520)
I0515 19:31:10.334549   577 net.cpp:159] Memory required for data: 1628062984
I0515 19:31:10.334563   577 layer_factory.hpp:77] Creating layer inception_4e/relu_3x3_reduce
I0515 19:31:10.334573   577 net.cpp:94] Creating Layer inception_4e/relu_3x3_reduce
I0515 19:31:10.334583   577 net.cpp:435] inception_4e/relu_3x3_reduce <- inception_4e/3x3_reduce
I0515 19:31:10.334596   577 net.cpp:396] inception_4e/relu_3x3_reduce -> inception_4e/3x3_reduce (in-place)
I0515 19:31:10.334609   577 net.cpp:144] Setting up inception_4e/relu_3x3_reduce
I0515 19:31:10.334619   577 net.cpp:151] Top shape: 32 160 14 14 (1003520)
I0515 19:31:10.334625   577 net.cpp:159] Memory required for data: 1632077064
I0515 19:31:10.334631   577 layer_factory.hpp:77] Creating layer inception_4e/3x3
I0515 19:31:10.334679   577 net.cpp:94] Creating Layer inception_4e/3x3
I0515 19:31:10.334689   577 net.cpp:435] inception_4e/3x3 <- inception_4e/3x3_reduce
I0515 19:31:10.334704   577 net.cpp:409] inception_4e/3x3 -> inception_4e/3x3
I0515 19:31:10.341375   577 net.cpp:144] Setting up inception_4e/3x3
I0515 19:31:10.341393   577 net.cpp:151] Top shape: 32 320 14 14 (2007040)
I0515 19:31:10.341398   577 net.cpp:159] Memory required for data: 1640105224
I0515 19:31:10.341405   577 layer_factory.hpp:77] Creating layer inception_4e/relu_3x3
I0515 19:31:10.341416   577 net.cpp:94] Creating Layer inception_4e/relu_3x3
I0515 19:31:10.341421   577 net.cpp:435] inception_4e/relu_3x3 <- inception_4e/3x3
I0515 19:31:10.341428   577 net.cpp:396] inception_4e/relu_3x3 -> inception_4e/3x3 (in-place)
I0515 19:31:10.341437   577 net.cpp:144] Setting up inception_4e/relu_3x3
I0515 19:31:10.341442   577 net.cpp:151] Top shape: 32 320 14 14 (2007040)
I0515 19:31:10.341445   577 net.cpp:159] Memory required for data: 1648133384
I0515 19:31:10.341449   577 layer_factory.hpp:77] Creating layer inception_4e/5x5_reduce
I0515 19:31:10.341460   577 net.cpp:94] Creating Layer inception_4e/5x5_reduce
I0515 19:31:10.341464   577 net.cpp:435] inception_4e/5x5_reduce <- inception_4d/output_inception_4d/output_0_split_3
I0515 19:31:10.341491   577 net.cpp:409] inception_4e/5x5_reduce -> inception_4e/5x5_reduce
I0515 19:31:10.341882   577 net.cpp:144] Setting up inception_4e/5x5_reduce
I0515 19:31:10.341893   577 net.cpp:151] Top shape: 32 32 14 14 (200704)
I0515 19:31:10.341897   577 net.cpp:159] Memory required for data: 1648936200
I0515 19:31:10.341903   577 layer_factory.hpp:77] Creating layer inception_4e/relu_5x5_reduce
I0515 19:31:10.341909   577 net.cpp:94] Creating Layer inception_4e/relu_5x5_reduce
I0515 19:31:10.341913   577 net.cpp:435] inception_4e/relu_5x5_reduce <- inception_4e/5x5_reduce
I0515 19:31:10.341918   577 net.cpp:396] inception_4e/relu_5x5_reduce -> inception_4e/5x5_reduce (in-place)
I0515 19:31:10.341925   577 net.cpp:144] Setting up inception_4e/relu_5x5_reduce
I0515 19:31:10.341929   577 net.cpp:151] Top shape: 32 32 14 14 (200704)
I0515 19:31:10.341933   577 net.cpp:159] Memory required for data: 1649739016
I0515 19:31:10.341936   577 layer_factory.hpp:77] Creating layer inception_4e/5x5
I0515 19:31:10.341976   577 net.cpp:94] Creating Layer inception_4e/5x5
I0515 19:31:10.341981   577 net.cpp:435] inception_4e/5x5 <- inception_4e/5x5_reduce
I0515 19:31:10.341987   577 net.cpp:409] inception_4e/5x5 -> inception_4e/5x5
I0515 19:31:10.342875   577 net.cpp:144] Setting up inception_4e/5x5
I0515 19:31:10.342886   577 net.cpp:151] Top shape: 32 128 14 14 (802816)
I0515 19:31:10.342890   577 net.cpp:159] Memory required for data: 1652950280
I0515 19:31:10.342896   577 layer_factory.hpp:77] Creating layer inception_4e/relu_5x5
I0515 19:31:10.342917   577 net.cpp:94] Creating Layer inception_4e/relu_5x5
I0515 19:31:10.342921   577 net.cpp:435] inception_4e/relu_5x5 <- inception_4e/5x5
I0515 19:31:10.342929   577 net.cpp:396] inception_4e/relu_5x5 -> inception_4e/5x5 (in-place)
I0515 19:31:10.342936   577 net.cpp:144] Setting up inception_4e/relu_5x5
I0515 19:31:10.342941   577 net.cpp:151] Top shape: 32 128 14 14 (802816)
I0515 19:31:10.342944   577 net.cpp:159] Memory required for data: 1656161544
I0515 19:31:10.342949   577 layer_factory.hpp:77] Creating layer inception_4e/pool
I0515 19:31:10.342955   577 net.cpp:94] Creating Layer inception_4e/pool
I0515 19:31:10.342959   577 net.cpp:435] inception_4e/pool <- inception_4d/output_inception_4d/output_0_split_4
I0515 19:31:10.342964   577 net.cpp:409] inception_4e/pool -> inception_4e/pool
I0515 19:31:10.343004   577 net.cpp:144] Setting up inception_4e/pool
I0515 19:31:10.343014   577 net.cpp:151] Top shape: 32 528 14 14 (3311616)
I0515 19:31:10.343019   577 net.cpp:159] Memory required for data: 1669408008
I0515 19:31:10.343021   577 layer_factory.hpp:77] Creating layer inception_4e/pool_proj
I0515 19:31:10.343031   577 net.cpp:94] Creating Layer inception_4e/pool_proj
I0515 19:31:10.343035   577 net.cpp:435] inception_4e/pool_proj <- inception_4e/pool
I0515 19:31:10.343041   577 net.cpp:409] inception_4e/pool_proj -> inception_4e/pool_proj
I0515 19:31:10.343770   577 net.cpp:144] Setting up inception_4e/pool_proj
I0515 19:31:10.343783   577 net.cpp:151] Top shape: 32 128 14 14 (802816)
I0515 19:31:10.343787   577 net.cpp:159] Memory required for data: 1672619272
I0515 19:31:10.343794   577 layer_factory.hpp:77] Creating layer inception_4e/relu_pool_proj
I0515 19:31:10.343801   577 net.cpp:94] Creating Layer inception_4e/relu_pool_proj
I0515 19:31:10.343806   577 net.cpp:435] inception_4e/relu_pool_proj <- inception_4e/pool_proj
I0515 19:31:10.343811   577 net.cpp:396] inception_4e/relu_pool_proj -> inception_4e/pool_proj (in-place)
I0515 19:31:10.343819   577 net.cpp:144] Setting up inception_4e/relu_pool_proj
I0515 19:31:10.343823   577 net.cpp:151] Top shape: 32 128 14 14 (802816)
I0515 19:31:10.343827   577 net.cpp:159] Memory required for data: 1675830536
I0515 19:31:10.343829   577 layer_factory.hpp:77] Creating layer inception_4e/output
I0515 19:31:10.343838   577 net.cpp:94] Creating Layer inception_4e/output
I0515 19:31:10.343842   577 net.cpp:435] inception_4e/output <- inception_4e/1x1
I0515 19:31:10.343847   577 net.cpp:435] inception_4e/output <- inception_4e/3x3
I0515 19:31:10.343865   577 net.cpp:435] inception_4e/output <- inception_4e/5x5
I0515 19:31:10.343870   577 net.cpp:435] inception_4e/output <- inception_4e/pool_proj
I0515 19:31:10.343876   577 net.cpp:409] inception_4e/output -> inception_4e/output
I0515 19:31:10.343906   577 net.cpp:144] Setting up inception_4e/output
I0515 19:31:10.343914   577 net.cpp:151] Top shape: 32 832 14 14 (5218304)
I0515 19:31:10.343916   577 net.cpp:159] Memory required for data: 1696703752
I0515 19:31:10.343920   577 layer_factory.hpp:77] Creating layer pool4/3x3_s2
I0515 19:31:10.343925   577 net.cpp:94] Creating Layer pool4/3x3_s2
I0515 19:31:10.343930   577 net.cpp:435] pool4/3x3_s2 <- inception_4e/output
I0515 19:31:10.343938   577 net.cpp:409] pool4/3x3_s2 -> pool4/3x3_s2
I0515 19:31:10.343986   577 net.cpp:144] Setting up pool4/3x3_s2
I0515 19:31:10.343993   577 net.cpp:151] Top shape: 32 832 7 7 (1304576)
I0515 19:31:10.343997   577 net.cpp:159] Memory required for data: 1701922056
I0515 19:31:10.343999   577 layer_factory.hpp:77] Creating layer pool4/3x3_s2_pool4/3x3_s2_0_split
I0515 19:31:10.344007   577 net.cpp:94] Creating Layer pool4/3x3_s2_pool4/3x3_s2_0_split
I0515 19:31:10.344009   577 net.cpp:435] pool4/3x3_s2_pool4/3x3_s2_0_split <- pool4/3x3_s2
I0515 19:31:10.344024   577 net.cpp:409] pool4/3x3_s2_pool4/3x3_s2_0_split -> pool4/3x3_s2_pool4/3x3_s2_0_split_0
I0515 19:31:10.344031   577 net.cpp:409] pool4/3x3_s2_pool4/3x3_s2_0_split -> pool4/3x3_s2_pool4/3x3_s2_0_split_1
I0515 19:31:10.344038   577 net.cpp:409] pool4/3x3_s2_pool4/3x3_s2_0_split -> pool4/3x3_s2_pool4/3x3_s2_0_split_2
I0515 19:31:10.344043   577 net.cpp:409] pool4/3x3_s2_pool4/3x3_s2_0_split -> pool4/3x3_s2_pool4/3x3_s2_0_split_3
I0515 19:31:10.344099   577 net.cpp:144] Setting up pool4/3x3_s2_pool4/3x3_s2_0_split
I0515 19:31:10.344105   577 net.cpp:151] Top shape: 32 832 7 7 (1304576)
I0515 19:31:10.344110   577 net.cpp:151] Top shape: 32 832 7 7 (1304576)
I0515 19:31:10.344115   577 net.cpp:151] Top shape: 32 832 7 7 (1304576)
I0515 19:31:10.344120   577 net.cpp:151] Top shape: 32 832 7 7 (1304576)
I0515 19:31:10.344122   577 net.cpp:159] Memory required for data: 1722795272
I0515 19:31:10.344135   577 layer_factory.hpp:77] Creating layer inception_5a/1x1
I0515 19:31:10.344144   577 net.cpp:94] Creating Layer inception_5a/1x1
I0515 19:31:10.344148   577 net.cpp:435] inception_5a/1x1 <- pool4/3x3_s2_pool4/3x3_s2_0_split_0
I0515 19:31:10.344158   577 net.cpp:409] inception_5a/1x1 -> inception_5a/1x1
I0515 19:31:10.346411   577 net.cpp:144] Setting up inception_5a/1x1
I0515 19:31:10.346428   577 net.cpp:151] Top shape: 32 256 7 7 (401408)
I0515 19:31:10.346432   577 net.cpp:159] Memory required for data: 1724400904
I0515 19:31:10.346439   577 layer_factory.hpp:77] Creating layer inception_5a/relu_1x1
I0515 19:31:10.346446   577 net.cpp:94] Creating Layer inception_5a/relu_1x1
I0515 19:31:10.346451   577 net.cpp:435] inception_5a/relu_1x1 <- inception_5a/1x1
I0515 19:31:10.346457   577 net.cpp:396] inception_5a/relu_1x1 -> inception_5a/1x1 (in-place)
I0515 19:31:10.346465   577 net.cpp:144] Setting up inception_5a/relu_1x1
I0515 19:31:10.346469   577 net.cpp:151] Top shape: 32 256 7 7 (401408)
I0515 19:31:10.346472   577 net.cpp:159] Memory required for data: 1726006536
I0515 19:31:10.346477   577 layer_factory.hpp:77] Creating layer inception_5a/3x3_reduce
I0515 19:31:10.346487   577 net.cpp:94] Creating Layer inception_5a/3x3_reduce
I0515 19:31:10.346493   577 net.cpp:435] inception_5a/3x3_reduce <- pool4/3x3_s2_pool4/3x3_s2_0_split_1
I0515 19:31:10.346499   577 net.cpp:409] inception_5a/3x3_reduce -> inception_5a/3x3_reduce
I0515 19:31:10.348248   577 net.cpp:144] Setting up inception_5a/3x3_reduce
I0515 19:31:10.348263   577 net.cpp:151] Top shape: 32 160 7 7 (250880)
I0515 19:31:10.348268   577 net.cpp:159] Memory required for data: 1727010056
I0515 19:31:10.348273   577 layer_factory.hpp:77] Creating layer inception_5a/relu_3x3_reduce
I0515 19:31:10.348280   577 net.cpp:94] Creating Layer inception_5a/relu_3x3_reduce
I0515 19:31:10.348299   577 net.cpp:435] inception_5a/relu_3x3_reduce <- inception_5a/3x3_reduce
I0515 19:31:10.348309   577 net.cpp:396] inception_5a/relu_3x3_reduce -> inception_5a/3x3_reduce (in-place)
I0515 19:31:10.348317   577 net.cpp:144] Setting up inception_5a/relu_3x3_reduce
I0515 19:31:10.348322   577 net.cpp:151] Top shape: 32 160 7 7 (250880)
I0515 19:31:10.348325   577 net.cpp:159] Memory required for data: 1728013576
I0515 19:31:10.348330   577 layer_factory.hpp:77] Creating layer inception_5a/3x3
I0515 19:31:10.348340   577 net.cpp:94] Creating Layer inception_5a/3x3
I0515 19:31:10.348342   577 net.cpp:435] inception_5a/3x3 <- inception_5a/3x3_reduce
I0515 19:31:10.348351   577 net.cpp:409] inception_5a/3x3 -> inception_5a/3x3
I0515 19:31:10.352262   577 net.cpp:144] Setting up inception_5a/3x3
I0515 19:31:10.352277   577 net.cpp:151] Top shape: 32 320 7 7 (501760)
I0515 19:31:10.352280   577 net.cpp:159] Memory required for data: 1730020616
I0515 19:31:10.352288   577 layer_factory.hpp:77] Creating layer inception_5a/relu_3x3
I0515 19:31:10.352295   577 net.cpp:94] Creating Layer inception_5a/relu_3x3
I0515 19:31:10.352300   577 net.cpp:435] inception_5a/relu_3x3 <- inception_5a/3x3
I0515 19:31:10.352305   577 net.cpp:396] inception_5a/relu_3x3 -> inception_5a/3x3 (in-place)
I0515 19:31:10.352313   577 net.cpp:144] Setting up inception_5a/relu_3x3
I0515 19:31:10.352318   577 net.cpp:151] Top shape: 32 320 7 7 (501760)
I0515 19:31:10.352320   577 net.cpp:159] Memory required for data: 1732027656
I0515 19:31:10.352324   577 layer_factory.hpp:77] Creating layer inception_5a/5x5_reduce
I0515 19:31:10.352334   577 net.cpp:94] Creating Layer inception_5a/5x5_reduce
I0515 19:31:10.352337   577 net.cpp:435] inception_5a/5x5_reduce <- pool4/3x3_s2_pool4/3x3_s2_0_split_2
I0515 19:31:10.352344   577 net.cpp:409] inception_5a/5x5_reduce -> inception_5a/5x5_reduce
I0515 19:31:10.352804   577 net.cpp:144] Setting up inception_5a/5x5_reduce
I0515 19:31:10.352815   577 net.cpp:151] Top shape: 32 32 7 7 (50176)
I0515 19:31:10.352818   577 net.cpp:159] Memory required for data: 1732228360
I0515 19:31:10.352824   577 layer_factory.hpp:77] Creating layer inception_5a/relu_5x5_reduce
I0515 19:31:10.352829   577 net.cpp:94] Creating Layer inception_5a/relu_5x5_reduce
I0515 19:31:10.352833   577 net.cpp:435] inception_5a/relu_5x5_reduce <- inception_5a/5x5_reduce
I0515 19:31:10.352843   577 net.cpp:396] inception_5a/relu_5x5_reduce -> inception_5a/5x5_reduce (in-place)
I0515 19:31:10.352851   577 net.cpp:144] Setting up inception_5a/relu_5x5_reduce
I0515 19:31:10.352864   577 net.cpp:151] Top shape: 32 32 7 7 (50176)
I0515 19:31:10.352866   577 net.cpp:159] Memory required for data: 1732429064
I0515 19:31:10.352869   577 layer_factory.hpp:77] Creating layer inception_5a/5x5
I0515 19:31:10.352888   577 net.cpp:94] Creating Layer inception_5a/5x5
I0515 19:31:10.352891   577 net.cpp:435] inception_5a/5x5 <- inception_5a/5x5_reduce
I0515 19:31:10.352897   577 net.cpp:409] inception_5a/5x5 -> inception_5a/5x5
I0515 19:31:10.353847   577 net.cpp:144] Setting up inception_5a/5x5
I0515 19:31:10.353857   577 net.cpp:151] Top shape: 32 128 7 7 (200704)
I0515 19:31:10.353859   577 net.cpp:159] Memory required for data: 1733231880
I0515 19:31:10.353864   577 layer_factory.hpp:77] Creating layer inception_5a/relu_5x5
I0515 19:31:10.353873   577 net.cpp:94] Creating Layer inception_5a/relu_5x5
I0515 19:31:10.353875   577 net.cpp:435] inception_5a/relu_5x5 <- inception_5a/5x5
I0515 19:31:10.353880   577 net.cpp:396] inception_5a/relu_5x5 -> inception_5a/5x5 (in-place)
I0515 19:31:10.353888   577 net.cpp:144] Setting up inception_5a/relu_5x5
I0515 19:31:10.353891   577 net.cpp:151] Top shape: 32 128 7 7 (200704)
I0515 19:31:10.353894   577 net.cpp:159] Memory required for data: 1734034696
I0515 19:31:10.353898   577 layer_factory.hpp:77] Creating layer inception_5a/pool
I0515 19:31:10.353902   577 net.cpp:94] Creating Layer inception_5a/pool
I0515 19:31:10.353906   577 net.cpp:435] inception_5a/pool <- pool4/3x3_s2_pool4/3x3_s2_0_split_3
I0515 19:31:10.353929   577 net.cpp:409] inception_5a/pool -> inception_5a/pool
I0515 19:31:10.353971   577 net.cpp:144] Setting up inception_5a/pool
I0515 19:31:10.353977   577 net.cpp:151] Top shape: 32 832 7 7 (1304576)
I0515 19:31:10.353981   577 net.cpp:159] Memory required for data: 1739253000
I0515 19:31:10.353984   577 layer_factory.hpp:77] Creating layer inception_5a/pool_proj
I0515 19:31:10.353993   577 net.cpp:94] Creating Layer inception_5a/pool_proj
I0515 19:31:10.353997   577 net.cpp:435] inception_5a/pool_proj <- inception_5a/pool
I0515 19:31:10.354003   577 net.cpp:409] inception_5a/pool_proj -> inception_5a/pool_proj
I0515 19:31:10.355383   577 net.cpp:144] Setting up inception_5a/pool_proj
I0515 19:31:10.355397   577 net.cpp:151] Top shape: 32 128 7 7 (200704)
I0515 19:31:10.355401   577 net.cpp:159] Memory required for data: 1740055816
I0515 19:31:10.355407   577 layer_factory.hpp:77] Creating layer inception_5a/relu_pool_proj
I0515 19:31:10.355414   577 net.cpp:94] Creating Layer inception_5a/relu_pool_proj
I0515 19:31:10.355418   577 net.cpp:435] inception_5a/relu_pool_proj <- inception_5a/pool_proj
I0515 19:31:10.355427   577 net.cpp:396] inception_5a/relu_pool_proj -> inception_5a/pool_proj (in-place)
I0515 19:31:10.355434   577 net.cpp:144] Setting up inception_5a/relu_pool_proj
I0515 19:31:10.355438   577 net.cpp:151] Top shape: 32 128 7 7 (200704)
I0515 19:31:10.355442   577 net.cpp:159] Memory required for data: 1740858632
I0515 19:31:10.355444   577 layer_factory.hpp:77] Creating layer inception_5a/output
I0515 19:31:10.355449   577 net.cpp:94] Creating Layer inception_5a/output
I0515 19:31:10.355453   577 net.cpp:435] inception_5a/output <- inception_5a/1x1
I0515 19:31:10.355459   577 net.cpp:435] inception_5a/output <- inception_5a/3x3
I0515 19:31:10.355463   577 net.cpp:435] inception_5a/output <- inception_5a/5x5
I0515 19:31:10.355468   577 net.cpp:435] inception_5a/output <- inception_5a/pool_proj
I0515 19:31:10.355473   577 net.cpp:409] inception_5a/output -> inception_5a/output
I0515 19:31:10.355499   577 net.cpp:144] Setting up inception_5a/output
I0515 19:31:10.355505   577 net.cpp:151] Top shape: 32 832 7 7 (1304576)
I0515 19:31:10.355509   577 net.cpp:159] Memory required for data: 1746076936
I0515 19:31:10.355511   577 layer_factory.hpp:77] Creating layer inception_5a/output_inception_5a/output_0_split
I0515 19:31:10.355517   577 net.cpp:94] Creating Layer inception_5a/output_inception_5a/output_0_split
I0515 19:31:10.355520   577 net.cpp:435] inception_5a/output_inception_5a/output_0_split <- inception_5a/output
I0515 19:31:10.355530   577 net.cpp:409] inception_5a/output_inception_5a/output_0_split -> inception_5a/output_inception_5a/output_0_split_0
I0515 19:31:10.355536   577 net.cpp:409] inception_5a/output_inception_5a/output_0_split -> inception_5a/output_inception_5a/output_0_split_1
I0515 19:31:10.355542   577 net.cpp:409] inception_5a/output_inception_5a/output_0_split -> inception_5a/output_inception_5a/output_0_split_2
I0515 19:31:10.355551   577 net.cpp:409] inception_5a/output_inception_5a/output_0_split -> inception_5a/output_inception_5a/output_0_split_3
I0515 19:31:10.355603   577 net.cpp:144] Setting up inception_5a/output_inception_5a/output_0_split
I0515 19:31:10.355609   577 net.cpp:151] Top shape: 32 832 7 7 (1304576)
I0515 19:31:10.355613   577 net.cpp:151] Top shape: 32 832 7 7 (1304576)
I0515 19:31:10.355617   577 net.cpp:151] Top shape: 32 832 7 7 (1304576)
I0515 19:31:10.355620   577 net.cpp:151] Top shape: 32 832 7 7 (1304576)
I0515 19:31:10.355623   577 net.cpp:159] Memory required for data: 1766950152
I0515 19:31:10.355628   577 layer_factory.hpp:77] Creating layer inception_5b/1x1
I0515 19:31:10.355669   577 net.cpp:94] Creating Layer inception_5b/1x1
I0515 19:31:10.355675   577 net.cpp:435] inception_5b/1x1 <- inception_5a/output_inception_5a/output_0_split_0
I0515 19:31:10.355685   577 net.cpp:409] inception_5b/1x1 -> inception_5b/1x1
I0515 19:31:10.358309   577 net.cpp:144] Setting up inception_5b/1x1
I0515 19:31:10.358322   577 net.cpp:151] Top shape: 32 384 7 7 (602112)
I0515 19:31:10.358338   577 net.cpp:159] Memory required for data: 1769358600
I0515 19:31:10.358345   577 layer_factory.hpp:77] Creating layer inception_5b/relu_1x1
I0515 19:31:10.358351   577 net.cpp:94] Creating Layer inception_5b/relu_1x1
I0515 19:31:10.358358   577 net.cpp:435] inception_5b/relu_1x1 <- inception_5b/1x1
I0515 19:31:10.358363   577 net.cpp:396] inception_5b/relu_1x1 -> inception_5b/1x1 (in-place)
I0515 19:31:10.358371   577 net.cpp:144] Setting up inception_5b/relu_1x1
I0515 19:31:10.358376   577 net.cpp:151] Top shape: 32 384 7 7 (602112)
I0515 19:31:10.358378   577 net.cpp:159] Memory required for data: 1771767048
I0515 19:31:10.358381   577 layer_factory.hpp:77] Creating layer inception_5b/3x3_reduce
I0515 19:31:10.358393   577 net.cpp:94] Creating Layer inception_5b/3x3_reduce
I0515 19:31:10.358398   577 net.cpp:435] inception_5b/3x3_reduce <- inception_5a/output_inception_5a/output_0_split_1
I0515 19:31:10.358405   577 net.cpp:409] inception_5b/3x3_reduce -> inception_5b/3x3_reduce
I0515 19:31:10.360136   577 net.cpp:144] Setting up inception_5b/3x3_reduce
I0515 19:31:10.360150   577 net.cpp:151] Top shape: 32 192 7 7 (301056)
I0515 19:31:10.360153   577 net.cpp:159] Memory required for data: 1772971272
I0515 19:31:10.360159   577 layer_factory.hpp:77] Creating layer inception_5b/relu_3x3_reduce
I0515 19:31:10.360165   577 net.cpp:94] Creating Layer inception_5b/relu_3x3_reduce
I0515 19:31:10.360169   577 net.cpp:435] inception_5b/relu_3x3_reduce <- inception_5b/3x3_reduce
I0515 19:31:10.360177   577 net.cpp:396] inception_5b/relu_3x3_reduce -> inception_5b/3x3_reduce (in-place)
I0515 19:31:10.360184   577 net.cpp:144] Setting up inception_5b/relu_3x3_reduce
I0515 19:31:10.360188   577 net.cpp:151] Top shape: 32 192 7 7 (301056)
I0515 19:31:10.360191   577 net.cpp:159] Memory required for data: 1774175496
I0515 19:31:10.360195   577 layer_factory.hpp:77] Creating layer inception_5b/3x3
I0515 19:31:10.360205   577 net.cpp:94] Creating Layer inception_5b/3x3
I0515 19:31:10.360208   577 net.cpp:435] inception_5b/3x3 <- inception_5b/3x3_reduce
I0515 19:31:10.360213   577 net.cpp:409] inception_5b/3x3 -> inception_5b/3x3
I0515 19:31:10.365725   577 net.cpp:144] Setting up inception_5b/3x3
I0515 19:31:10.365742   577 net.cpp:151] Top shape: 32 384 7 7 (602112)
I0515 19:31:10.365748   577 net.cpp:159] Memory required for data: 1776583944
I0515 19:31:10.365756   577 layer_factory.hpp:77] Creating layer inception_5b/relu_3x3
I0515 19:31:10.365762   577 net.cpp:94] Creating Layer inception_5b/relu_3x3
I0515 19:31:10.365767   577 net.cpp:435] inception_5b/relu_3x3 <- inception_5b/3x3
I0515 19:31:10.365772   577 net.cpp:396] inception_5b/relu_3x3 -> inception_5b/3x3 (in-place)
I0515 19:31:10.365780   577 net.cpp:144] Setting up inception_5b/relu_3x3
I0515 19:31:10.365784   577 net.cpp:151] Top shape: 32 384 7 7 (602112)
I0515 19:31:10.365787   577 net.cpp:159] Memory required for data: 1778992392
I0515 19:31:10.365790   577 layer_factory.hpp:77] Creating layer inception_5b/5x5_reduce
I0515 19:31:10.365816   577 net.cpp:94] Creating Layer inception_5b/5x5_reduce
I0515 19:31:10.365820   577 net.cpp:435] inception_5b/5x5_reduce <- inception_5a/output_inception_5a/output_0_split_2
I0515 19:31:10.365828   577 net.cpp:409] inception_5b/5x5_reduce -> inception_5b/5x5_reduce
I0515 19:31:10.366305   577 net.cpp:144] Setting up inception_5b/5x5_reduce
I0515 19:31:10.366314   577 net.cpp:151] Top shape: 32 48 7 7 (75264)
I0515 19:31:10.366317   577 net.cpp:159] Memory required for data: 1779293448
I0515 19:31:10.366323   577 layer_factory.hpp:77] Creating layer inception_5b/relu_5x5_reduce
I0515 19:31:10.366330   577 net.cpp:94] Creating Layer inception_5b/relu_5x5_reduce
I0515 19:31:10.366333   577 net.cpp:435] inception_5b/relu_5x5_reduce <- inception_5b/5x5_reduce
I0515 19:31:10.366338   577 net.cpp:396] inception_5b/relu_5x5_reduce -> inception_5b/5x5_reduce (in-place)
I0515 19:31:10.366344   577 net.cpp:144] Setting up inception_5b/relu_5x5_reduce
I0515 19:31:10.366348   577 net.cpp:151] Top shape: 32 48 7 7 (75264)
I0515 19:31:10.366364   577 net.cpp:159] Memory required for data: 1779594504
I0515 19:31:10.366369   577 layer_factory.hpp:77] Creating layer inception_5b/5x5
I0515 19:31:10.366379   577 net.cpp:94] Creating Layer inception_5b/5x5
I0515 19:31:10.366382   577 net.cpp:435] inception_5b/5x5 <- inception_5b/5x5_reduce
I0515 19:31:10.366389   577 net.cpp:409] inception_5b/5x5 -> inception_5b/5x5
I0515 19:31:10.367602   577 net.cpp:144] Setting up inception_5b/5x5
I0515 19:31:10.367612   577 net.cpp:151] Top shape: 32 128 7 7 (200704)
I0515 19:31:10.367615   577 net.cpp:159] Memory required for data: 1780397320
I0515 19:31:10.367620   577 layer_factory.hpp:77] Creating layer inception_5b/relu_5x5
I0515 19:31:10.367626   577 net.cpp:94] Creating Layer inception_5b/relu_5x5
I0515 19:31:10.367632   577 net.cpp:435] inception_5b/relu_5x5 <- inception_5b/5x5
I0515 19:31:10.367664   577 net.cpp:396] inception_5b/relu_5x5 -> inception_5b/5x5 (in-place)
I0515 19:31:10.367681   577 net.cpp:144] Setting up inception_5b/relu_5x5
I0515 19:31:10.367689   577 net.cpp:151] Top shape: 32 128 7 7 (200704)
I0515 19:31:10.367694   577 net.cpp:159] Memory required for data: 1781200136
I0515 19:31:10.367699   577 layer_factory.hpp:77] Creating layer inception_5b/pool
I0515 19:31:10.367709   577 net.cpp:94] Creating Layer inception_5b/pool
I0515 19:31:10.367713   577 net.cpp:435] inception_5b/pool <- inception_5a/output_inception_5a/output_0_split_3
I0515 19:31:10.367718   577 net.cpp:409] inception_5b/pool -> inception_5b/pool
I0515 19:31:10.367764   577 net.cpp:144] Setting up inception_5b/pool
I0515 19:31:10.367771   577 net.cpp:151] Top shape: 32 832 7 7 (1304576)
I0515 19:31:10.367774   577 net.cpp:159] Memory required for data: 1786418440
I0515 19:31:10.367776   577 layer_factory.hpp:77] Creating layer inception_5b/pool_proj
I0515 19:31:10.367787   577 net.cpp:94] Creating Layer inception_5b/pool_proj
I0515 19:31:10.367791   577 net.cpp:435] inception_5b/pool_proj <- inception_5b/pool
I0515 19:31:10.367799   577 net.cpp:409] inception_5b/pool_proj -> inception_5b/pool_proj
I0515 19:31:10.369184   577 net.cpp:144] Setting up inception_5b/pool_proj
I0515 19:31:10.369199   577 net.cpp:151] Top shape: 32 128 7 7 (200704)
I0515 19:31:10.369201   577 net.cpp:159] Memory required for data: 1787221256
I0515 19:31:10.369208   577 layer_factory.hpp:77] Creating layer inception_5b/relu_pool_proj
I0515 19:31:10.369216   577 net.cpp:94] Creating Layer inception_5b/relu_pool_proj
I0515 19:31:10.369221   577 net.cpp:435] inception_5b/relu_pool_proj <- inception_5b/pool_proj
I0515 19:31:10.369226   577 net.cpp:396] inception_5b/relu_pool_proj -> inception_5b/pool_proj (in-place)
I0515 19:31:10.369233   577 net.cpp:144] Setting up inception_5b/relu_pool_proj
I0515 19:31:10.369240   577 net.cpp:151] Top shape: 32 128 7 7 (200704)
I0515 19:31:10.369242   577 net.cpp:159] Memory required for data: 1788024072
I0515 19:31:10.369246   577 layer_factory.hpp:77] Creating layer inception_5b/output
I0515 19:31:10.369251   577 net.cpp:94] Creating Layer inception_5b/output
I0515 19:31:10.369253   577 net.cpp:435] inception_5b/output <- inception_5b/1x1
I0515 19:31:10.369257   577 net.cpp:435] inception_5b/output <- inception_5b/3x3
I0515 19:31:10.369261   577 net.cpp:435] inception_5b/output <- inception_5b/5x5
I0515 19:31:10.369266   577 net.cpp:435] inception_5b/output <- inception_5b/pool_proj
I0515 19:31:10.369269   577 net.cpp:409] inception_5b/output -> inception_5b/output
I0515 19:31:10.369295   577 net.cpp:144] Setting up inception_5b/output
I0515 19:31:10.369302   577 net.cpp:151] Top shape: 32 1024 7 7 (1605632)
I0515 19:31:10.369303   577 net.cpp:159] Memory required for data: 1794446600
I0515 19:31:10.369307   577 layer_factory.hpp:77] Creating layer pool5/7x7_s1
I0515 19:31:10.369312   577 net.cpp:94] Creating Layer pool5/7x7_s1
I0515 19:31:10.369315   577 net.cpp:435] pool5/7x7_s1 <- inception_5b/output
I0515 19:31:10.369323   577 net.cpp:409] pool5/7x7_s1 -> pool5/7x7_s1
I0515 19:31:10.369345   577 net.cpp:144] Setting up pool5/7x7_s1
I0515 19:31:10.369364   577 net.cpp:151] Top shape: 32 1024 1 1 (32768)
I0515 19:31:10.369369   577 net.cpp:159] Memory required for data: 1794577672
I0515 19:31:10.369371   577 layer_factory.hpp:77] Creating layer pool5/drop_7x7_s1
I0515 19:31:10.369376   577 net.cpp:94] Creating Layer pool5/drop_7x7_s1
I0515 19:31:10.369380   577 net.cpp:435] pool5/drop_7x7_s1 <- pool5/7x7_s1
I0515 19:31:10.369387   577 net.cpp:396] pool5/drop_7x7_s1 -> pool5/7x7_s1 (in-place)
I0515 19:31:10.369407   577 net.cpp:144] Setting up pool5/drop_7x7_s1
I0515 19:31:10.369413   577 net.cpp:151] Top shape: 32 1024 1 1 (32768)
I0515 19:31:10.369416   577 net.cpp:159] Memory required for data: 1794708744
I0515 19:31:10.369419   577 layer_factory.hpp:77] Creating layer loss3/classifier
I0515 19:31:10.369428   577 net.cpp:94] Creating Layer loss3/classifier
I0515 19:31:10.369431   577 net.cpp:435] loss3/classifier <- pool5/7x7_s1
I0515 19:31:10.369441   577 net.cpp:409] loss3/classifier -> loss3/classifier
I0515 19:31:10.369539   577 net.cpp:144] Setting up loss3/classifier
I0515 19:31:10.369545   577 net.cpp:151] Top shape: 32 3 (96)
I0515 19:31:10.369549   577 net.cpp:159] Memory required for data: 1794709128
I0515 19:31:10.369554   577 layer_factory.hpp:77] Creating layer loss3/loss
I0515 19:31:10.369558   577 net.cpp:94] Creating Layer loss3/loss
I0515 19:31:10.369562   577 net.cpp:435] loss3/loss <- loss3/classifier
I0515 19:31:10.369566   577 net.cpp:435] loss3/loss <- label_train-data_1_split_2
I0515 19:31:10.369570   577 net.cpp:409] loss3/loss -> loss
…
I0515 19:31:10.372097   577 solver.cpp:181] Creating test net (#0) specified by net file: train_val.prototxt
I0515 19:31:10.372248   577 net.cpp:323] The NetState phase (1) differed from the phase (0) specified by a rule in layer train-data
I0515 19:31:10.372895   577 net.cpp:52] Initializing net from parameters:
state {
phase: TEST
}
layer {
name: "val-data"
type: "Data"
top: "data"
top: "label"
include {
phase: TEST
}
transform_param {
mirror: false
crop_size: 224
mean_file: "/opt/DIGITS/digits/jobs/20190515-190236-6094/mean.binaryproto"
}
data_param {
source: "/opt/DIGITS/digits/jobs/20190515-190236-6094/val_db"
batch_size: 16
backend: LMDB
}
}
layer {
name: "conv1/7x7_s2"
type: "Convolution"
bottom: "data"
top: "conv1/7x7_s2"
param {
lr_mult: 1
decay_mult: 1
}
param {
lr_mult: 2
decay_mult: 0
}
convolution_param {
num_output: 64
pad: 3
kernel_size: 7
stride: 2
weight_filler {
type: "xavier"
std: 0.1
}
bias_filler {
type: "constant"
value: 0.2
}
}
}
layer {
name: "conv1/relu_7x7"
type: "ReLU"
bottom: "conv1/7x7_s2"
top: "conv1/7x7_s2"
}
layer {
name: "pool1/3x3_s2"
type: "Pooling"
bottom: "conv1/7x7_s2"
top: "pool1/3x3_s2"
pooling_param {
pool: MAX
kernel_size: 3
stride: 2
}
}
layer {
name: "pool1/norm1"
type: "LRN"
bottom: "pool1/3x3_s2"
top: "pool1/norm1"
lrn_param {
local_size: 5
alpha: 0.0001
beta: 0.75
}
}
layer {
name: "conv2/3x3_reduce"
type: "Convolution"
bottom: "pool1/norm1"
top: "conv2/3x3_reduce"
param {
lr_mult: 1
decay_mult: 1
}
param {
lr_mult: 2
decay_mult: 0
}
convolution_param {
num_output: 64
kernel_size: 1
weight_filler {
type: "xavier"
std: 0.1
}
bias_filler {
type: "constant"
value: 0.2
}
}
}
layer {
name: "conv2/relu_3x3_reduce"
type: "ReLU"
bottom: "conv2/3x3_reduce"
top: "conv2/3x3_reduce"
}
layer {
name: "conv2/3x3"
type: "Convolution"
bottom: "conv2/3x3_reduce"
top: "conv2/3x3"
param {
lr_mult: 1
decay_mult: 1
}
param {
lr_mult: 2
decay_mult: 0
}
convolution_param {
num_output: 192
pad: 1
kernel_size: 3
weight_filler {
type: "xavier"
std: 0.03
}
bias_filler {
type: "constant"
value: 0.2
}
}
}
layer {
name: "conv2/relu_3x3"
type: "ReLU"
bottom: "conv2/3x3"
top: "conv2/3x3"
}
layer {
name: "conv2/norm2"
type: "LRN"
bottom: "conv2/3x3"
top: "conv2/norm2"
lrn_param {
local_size: 5
alpha: 0.0001
beta: 0.75
}
}
layer {
name: "pool2/3x3_s2"
type: "Pooling"
bottom: "conv2/norm2"
top: "pool2/3x3_s2"
pooling_param {
pool: MAX
kernel_size: 3
stride: 2
}
}
layer {
name: "inception_3a/1x1"
type: "Convolution"
bottom: "pool2/3x3_s2"
top: "inception_3a/1x1"
param {
lr_mult: 1
decay_mult: 1
}
param {
lr_mult: 2
decay_mult: 0
}
convolution_param {
num_output: 64
kernel_size: 1
weight_filler {
type: "xavier"
std: 0.03
}
bias_filler {
type: "constant"
value: 0.2
}
}
}
layer {
name: "inception_3a/relu_1x1"
type: "ReLU"
bottom: "inception_3a/1x1"
top: "inception_3a/1x1"
}
layer {
name: "inception_3a/3x3_reduce"
type: "Convolution"
bottom: "pool2/3x3_s2"
top: "inception_3a/3x3_reduce"
param {
lr_mult: 1
decay_mult: 1
}
param {
lr_mult: 2
decay_mult: 0
}
convolution_param {
num_output: 96
kernel_size: 1
weight_filler {
type: "xavier"
std: 0.09
}
bias_filler {
type: "constant"
value: 0.2
}
}
}
layer {
name: "inception_3a/relu_3x3_reduce"
type: "ReLU"
bottom: "inception_3a/3x3_reduce"
top: "inception_3a/3x3_reduce"
}
layer {
name: "inception_3a/3x3"
type: "Convolution"
bottom: "inception_3a/3x3_reduce"
top: "inception_3a/3x3"
param {
lr_mult: 1
decay_mult: 1
}
param {
lr_mult: 2
decay_mult: 0
}
convolution_param {
num_output: 128
pad: 1
kernel_size: 3
weight_filler {
type: "xavier"
std: 0.03
}
bias_filler {
type: "constant"
value: 0.2
}
}
}
layer {
name: "inception_3a/relu_3x3"
type: "ReLU"
bottom: "inception_3a/3x3"
top: "inception_3a/3x3"
}
layer {
name: "inception_3a/5x5_reduce"
type: "Convolution"
bottom: "pool2/3x3_s2"
top: "inception_3a/5x5_reduce"
param {
lr_mult: 1
decay_mult: 1
}
param {
lr_mult: 2
decay_mult: 0
}
convolution_param {
num_output: 16
kernel_size: 1
weight_filler {
type: "xavier"
std: 0.2
}
bias_filler {
type: "constant"
value: 0.2
}
}
}
layer {
name: "inception_3a/relu_5x5_reduce"
type: "ReLU"
bottom: "inception_3a/5x5_reduce"
top: "inception_3a/5x5_reduce"
}
layer {
name: "inception_3a/5x5"
type: "Convolution"
bottom: "inception_3a/5x5_reduce"
top: "inception_3a/5x5"
param {
lr_mult: 1
decay_mult: 1
}
param {
lr_mult: 2
decay_mult: 0
}
convolution_param {
num_output: 32
pad: 2
kernel_size: 5
weight_filler {
type: "xavier"
std: 0.03
}
bias_filler {
type: "constant"
value: 0.2
}
}
}
layer {
name: "inception_3a/relu_5x5"
type: "ReLU"
bottom: "inception_3a/5x5"
top: "inception_3a/5x5"
}
layer {
name: "inception_3a/pool"
type: "Pooling"
bottom: "pool2/3x3_s2"
top: "inception_3a/pool"
pooling_param {
pool: MAX
kernel_size: 3
stride: 1
pad: 1
}
}
layer {
name: "inception_3a/pool_proj"
type: "Convolution"
bottom: "inception_3a/pool"
top: "inception_3a/pool_proj"
param {
lr_mult: 1
decay_mult: 1
}
param {
lr_mult: 2
decay_mult: 0
}
convolution_param {
num_output: 32
kernel_size: 1
weight_filler {
type: "xavier"
std: 0.1
}
bias_filler {
type: "constant"
value: 0.2
}
}
}
layer {
name: "inception_3a/relu_pool_proj"
type: "ReLU"
bottom: "inception_3a/pool_proj"
top: "inception_3a/pool_proj"
}
layer {
name: "inception_3a/output"
type: "Concat"
bottom: "inception_3a/1x1"
bottom: "inception_3a/3x3"
bottom: "inception_3a/5x5"
bottom: "inception_3a/pool_proj"
top: "inception_3a/output"
}
layer {
name: "inception_3b/1x1"
type: "Convolution"
bottom: "inception_3a/output"
top: "inception_3b/1x1"
param {
lr_mult: 1
decay_mult: 1
}
param {
lr_mult: 2
decay_mult: 0
}
convolution_param {
num_output: 128
kernel_size: 1
weight_filler {
type: "xavier"
std: 0.03
}
bias_filler {
type: "constant"
value: 0.2
}
}
}
layer {
name: "inception_3b/relu_1x1"
type: "ReLU"
bottom: "inception_3b/1x1"
top: "inception_3b/1x1"
}
layer {
name: "inception_3b/3x3_reduce"
type: "Convolution"
bottom: "inception_3a/output"
top: "inception_3b/3x3_reduce"
param {
lr_mult: 1
decay_mult: 1
}
param {
lr_mult: 2
decay_mult: 0
}
convolution_param {
num_output: 128
kernel_size: 1
weight_filler {
type: "xavier"
std: 0.09
}
bias_filler {
type: "constant"
value: 0.2
}
}
}
layer {
name: "inception_3b/relu_3x3_reduce"
type: "ReLU"
bottom: "inception_3b/3x3_reduce"
top: "inception_3b/3x3_reduce"
}
layer {
name: "inception_3b/3x3"
type: "Convolution"
bottom: "inception_3b/3x3_reduce"
top: "inception_3b/3x3"
param {
lr_mult: 1
decay_mult: 1
}
param {
lr_mult: 2
decay_mult: 0
}
convolution_param {
num_output: 192
pad: 1
kernel_size: 3
weight_filler {
type: "xavier"
std: 0.03
}
bias_filler {
type: "constant"
value: 0.2
}
}
}
layer {
name: "inception_3b/relu_3x3"
type: "ReLU"
bottom: "inception_3b/3x3"
top: "inception_3b/3x3"
}
layer {
name: "inception_3b/5x5_reduce"
type: "Convolution"
bottom: "inception_3a/output"
top: "inception_3b/5x5_reduce"
param {
lr_mult: 1
decay_mult: 1
}
param {
lr_mult: 2
decay_mult: 0
}
convolution_param {
num_output: 32
kernel_size: 1
weight_filler {
type: "xavier"
std: 0.2
}
bias_filler {
type: "constant"
value: 0.2
}
}
}
layer {
name: "inception_3b/relu_5x5_reduce"
type: "ReLU"
bottom: "inception_3b/5x5_reduce"
top: "inception_3b/5x5_reduce"
}
layer {
name: "inception_3b/5x5"
type: "Convolution"
bottom: "inception_3b/5x5_reduce"
top: "inception_3b/5x5"
param {
lr_mult: 1
decay_mult: 1
}
param {
lr_mult: 2
decay_mult: 0
}
convolution_param {
num_output: 96
pad: 2
kernel_size: 5
weight_filler {
type: "xavier"
std: 0.03
}
bias_filler {
type: "constant"
value: 0.2
}
}
}
layer {
name: "inception_3b/relu_5x5"
type: "ReLU"
bottom: "inception_3b/5x5"
top: "inception_3b/5x5"
}
layer {
name: "inception_3b/pool"
type: "Pooling"
bottom: "inception_3a/output"
top: "inception_3b/pool"
pooling_param {
pool: MAX
kernel_size: 3
stride: 1
pad: 1
}
}
layer {
name: "inception_3b/pool_proj"
type: "Convolution"
bottom: "inception_3b/pool"
top: "inception_3b/pool_proj"
param {
lr_mult: 1
decay_mult: 1
}
param {
lr_mult: 2
decay_mult: 0
}
convolution_param {
num_output: 64
kernel_size: 1
weight_filler {
type: "xavier"
std: 0.1
}
bias_filler {
type: "constant"
value: 0.2
}
}
}
layer {
name: "inception_3b/relu_pool_proj"
type: "ReLU"
bottom: "inception_3b/pool_proj"
top: "inception_3b/pool_proj"
}
layer {
name: "inception_3b/output"
type: "Concat"
bottom: "inception_3b/1x1"
bottom: "inception_3b/3x3"
bottom: "inception_3b/5x5"
bottom: "inception_3b/pool_proj"
top: "inception_3b/output"
}
layer {
name: "pool3/3x3_s2"
type: "Pooling"
bottom: "inception_3b/output"
top: "pool3/3x3_s2"
pooling_param {
pool: MAX
kernel_size: 3
stride: 2
}
}
layer {
name: "inception_4a/1x1"
type: "Convolution"
bottom: "pool3/3x3_s2"
top: "inception_4a/1x1"
param {
lr_mult: 1
decay_mult: 1
}
param {
lr_mult: 2
decay_mult: 0
}
convolution_param {
num_output: 192
kernel_size: 1
weight_filler {
type: "xavier"
std: 0.03
}
bias_filler {
type: "constant"
value: 0.2
}
}
}
layer {
name: "inception_4a/relu_1x1"
type: "ReLU"
bottom: "inception_4a/1x1"
top: "inception_4a/1x1"
}
layer {
name: "inception_4a/3x3_reduce"
type: "Convolution"
bottom: "pool3/3x3_s2"
top: "inception_4a/3x3_reduce"
param {
lr_mult: 1
decay_mult: 1
}
param {
lr_mult: 2
decay_mult: 0
}
convolution_param {
num_output: 96
kernel_size: 1
weight_filler {
type: "xavier"
std: 0.09
}
bias_filler {
type: "constant"
value: 0.2
}
}
}
layer {
name: "inception_4a/relu_3x3_reduce"
type: "ReLU"
bottom: "inception_4a/3x3_reduce"
top: "inception_4a/3x3_reduce"
}
layer {
name: "inception_4a/3x3"
type: "Convolution"
bottom: "inception_4a/3x3_reduce"
top: "inception_4a/3x3"
param {
lr_mult: 1
decay_mult: 1
}
param {
lr_mult: 2
decay_mult: 0
}
convolution_param {
num_output: 208
pad: 1
kernel_size: 3
weight_filler {
type: "xavier"
std: 0.03
}
bias_filler {
type: "constant"
value: 0.2
}
}
}
layer {
name: "inception_4a/relu_3x3"
type: "ReLU"
bottom: "inception_4a/3x3"
top: "inception_4a/3x3"
}
layer {
name: "inception_4a/5x5_reduce"
type: "Convolution"
bottom: "pool3/3x3_s2"
top: "inception_4a/5x5_reduce"
param {
lr_mult: 1
decay_mult: 1
}
param {
lr_mult: 2
decay_mult: 0
}
convolution_param {
num_output: 16
kernel_size: 1
weight_filler {
type: "xavier"
std: 0.2
}
bias_filler {
type: "constant"
value: 0.2
}
}
}
layer {
name: "inception_4a/relu_5x5_reduce"
type: "ReLU"
bottom: "inception_4a/5x5_reduce"
top: "inception_4a/5x5_reduce"
}
layer {
name: "inception_4a/5x5"
type: "Convolution"
bottom: "inception_4a/5x5_reduce"
top: "inception_4a/5x5"
param {
lr_mult: 1
decay_mult: 1
}
param {
lr_mult: 2
decay_mult: 0
}
convolution_param {
num_output: 48
pad: 2
kernel_size: 5
weight_filler {
type: "xavier"
std: 0.03
}
bias_filler {
type: "constant"
value: 0.2
}
}
}
layer {
name: "inception_4a/relu_5x5"
type: "ReLU"
bottom: "inception_4a/5x5"
top: "inception_4a/5x5"
}
layer {
name: "inception_4a/pool"
type: "Pooling"
bottom: "pool3/3x3_s2"
top: "inception_4a/pool"
pooling_param {
pool: MAX
kernel_size: 3
stride: 1
pad: 1
}
}
layer {
name: "inception_4a/pool_proj"
type: "Convolution"
bottom: "inception_4a/pool"
top: "inception_4a/pool_proj"
param {
lr_mult: 1
decay_mult: 1
}
param {
lr_mult: 2
decay_mult: 0
}
convolution_param {
num_output: 64
kernel_size: 1
weight_filler {
type: "xavier"
std: 0.1
}
bias_filler {
type: "constant"
value: 0.2
}
}
}
layer {
name: "inception_4a/relu_pool_proj"
type: "ReLU"
bottom: "inception_4a/pool_proj"
top: "inception_4a/pool_proj"
}
layer {
name: "inception_4a/output"
type: "Concat"
bottom: "inception_4a/1x1"
bottom: "inception_4a/3x3"
bottom: "inception_4a/5x5"
bottom: "inception_4a/pool_proj"
top: "inception_4a/output"
}
layer {
name: "loss1/ave_pool"
type: "Pooling"
bottom: "inception_4a/output"
top: "loss1/ave_pool"
pooling_param {
pool: AVE
kernel_size: 5
stride: 3
}
}
layer {
name: "loss1/conv"
type: "Convolution"
bottom: "loss1/ave_pool"
top: "loss1/conv"
param {
lr_mult: 1
decay_mult: 1
}
param {
lr_mult: 2
decay_mult: 0
}
convolution_param {
num_output: 128
kernel_size: 1
weight_filler {
type: "xavier"
std: 0.08
}
bias_filler {
type: "constant"
value: 0.2
}
}
}
layer {
name: "loss1/relu_conv"
type: "ReLU"
bottom: "loss1/conv"
top: "loss1/conv"
}
layer {
name: "loss1/fc"
type: "InnerProduct"
bottom: "loss1/conv"
top: "loss1/fc"
param {
lr_mult: 1
decay_mult: 1
}
param {
lr_mult: 2
decay_mult: 0
}
inner_product_param {
num_output: 1024
weight_filler {
type: "xavier"
std: 0.02
}
bias_filler {
type: "constant"
value: 0.2
}
}
}
layer {
name: "loss1/relu_fc"
type: "ReLU"
bottom: "loss1/fc"
top: "loss1/fc"
}
layer {
name: "loss1/drop_fc"
type: "Dropout"
bottom: "loss1/fc"
top: "loss1/fc"
dropout_param {
dropout_ratio: 0.7
}
}
layer {
name: "loss1/classifier"
type: "InnerProduct"
bottom: "loss1/fc"
top: "loss1/classifier"
param {
lr_mult: 1
decay_mult: 1
}
param {
lr_mult: 2
decay_mult: 0
}
inner_product_param {
num_output: 3
weight_filler {
type: "xavier"
std: 0.0009765625
}
bias_filler {
type: "constant"
value: 0
}
}
}
layer {
name: "loss1/loss"
type: "SoftmaxWithLoss"
bottom: "loss1/classifier"
bottom: "label"
top: "loss1/loss"
loss_weight: 0.3
}
layer {
name: "loss1/top-1"
type: "Accuracy"
bottom: "loss1/classifier"
bottom: "label"
top: "loss1/accuracy"
include {
phase: TEST
}
}
layer {
name: "inception_4b/1x1"
type: "Convolution"
bottom: "inception_4a/output"
top: "inception_4b/1x1"
param {
lr_mult: 1
decay_mult: 1
}
param {
lr_mult: 2
decay_mult: 0
}
convolution_param {
num_output: 160
kernel_size: 1
weight_filler {
type: "xavier"
std: 0.03
}
bias_filler {
type: "constant"
value: 0.2
}
}
}
layer {
name: "inception_4b/relu_1x1"
type: "ReLU"
bottom: "inception_4b/1x1"
top: "inception_4b/1x1"
}
layer {
name: "inception_4b/3x3_reduce"
type: "Convolution"
bottom: "inception_4a/output"
top: "inception_4b/3x3_reduce"
param {
lr_mult: 1
decay_mult: 1
}
param {
lr_mult: 2
decay_mult: 0
}
convolution_param {
num_output: 112
kernel_size: 1
weight_filler {
type: "xavier"
std: 0.09
}
bias_filler {
type: "constant"
value: 0.2
}
}
}
layer {
name: "inception_4b/relu_3x3_reduce"
type: "ReLU"
bottom: "inception_4b/3x3_reduce"
top: "inception_4b/3x3_reduce"
}
layer {
name: "inception_4b/3x3"
type: "Convolution"
bottom: "inception_4b/3x3_reduce"
top: "inception_4b/3x3"
param {
lr_mult: 1
decay_mult: 1
}
param {
lr_mult: 2
decay_mult: 0
}
convolution_param {
num_output: 224
pad: 1
kernel_size: 3
weight_filler {
type: "xavier"
std: 0.03
}
bias_filler {
type: "constant"
value: 0.2
}
}
}
layer {
name: "inception_4b/relu_3x3"
type: "ReLU"
bottom: "inception_4b/3x3"
top: "inception_4b/3x3"
}
layer {
name: "inception_4b/5x5_reduce"
type: "Convolution"
bottom: "inception_4a/output"
top: "inception_4b/5x5_reduce"
param {
lr_mult: 1
decay_mult: 1
}
param {
lr_mult: 2
decay_mult: 0
}
convolution_param {
num_output: 24
kernel_size: 1
weight_filler {
type: "xavier"
std: 0.2
}
bias_filler {
type: "constant"
value: 0.2
}
}
}
layer {
name: "inception_4b/relu_5x5_reduce"
type: "ReLU"
bottom: "inception_4b/5x5_reduce"
top: "inception_4b/5x5_reduce"
}
layer {
name: "inception_4b/5x5"
type: "Convolution"
bottom: "inception_4b/5x5_reduce"
top: "inception_4b/5x5"
param {
lr_mult: 1
decay_mult: 1
}
param {
lr_mult: 2
decay_mult: 0
}
convolution_param {
num_output: 64
pad: 2
kernel_size: 5
weight_filler {
type: "xavier"
std: 0.03
}
bias_filler {
type: "constant"
value: 0.2
}
}
}
layer {
name: "inception_4b/relu_5x5"
type: "ReLU"
bottom: "inception_4b/5x5"
top: "inception_4b/5x5"
}
layer {
name: "inception_4b/pool"
type: "Pooling"
bottom: "inception_4a/output"
top: "inception_4b/pool"
pooling_param {
pool: MAX
kernel_size: 3
stride: 1
pad: 1
}
}
layer {
name: "inception_4b/pool_proj"
type: "Convolution"
bottom: "inception_4b/pool"
top: "inception_4b/pool_proj"
param {
lr_mult: 1
decay_mult: 1
}
param {
lr_mult: 2
decay_mult: 0
}
convolution_param {
num_output: 64
kernel_size: 1
weight_filler {
type: "xavier"
std: 0.1
}
bias_filler {
type: "constant"
value: 0.2
}
}
}
layer {
name: "inception_4b/relu_pool_proj"
type: "ReLU"
bottom: "inception_4b/pool_proj"
top: "inception_4b/pool_proj"
}
layer {
name: "inception_4b/output"
type: "Concat"
bottom: "inception_4b/1x1"
bottom: "inception_4b/3x3"
bottom: "inception_4b/5x5"
bottom: "inception_4b/pool_proj"
top: "inception_4b/output"
}
layer {
name: "inception_4c/1x1"
type: "Convolution"
bottom: "inception_4b/output"
top: "inception_4c/1x1"
param {
lr_mult: 1
decay_mult: 1
}
param {
lr_mult: 2
decay_mult: 0
}
convolution_param {
num_output: 128
kernel_size: 1
weight_filler {
type: "xavier"
std: 0.03
}
bias_filler {
type: "constant"
value: 0.2
}
}
}
layer {
name: "inception_4c/relu_1x1"
type: "ReLU"
bottom: "inception_4c/1x1"
top: "inception_4c/1x1"
}
layer {
name: "inception_4c/3x3_reduce"
type: "Convolution"
bottom: "inception_4b/output"
top: "inception_4c/3x3_reduce"
param {
lr_mult: 1
decay_mult: 1
}
param {
lr_mult: 2
decay_mult: 0
}
convolution_param {
num_output: 128
kernel_size: 1
weight_filler {
type: "xavier"
std: 0.09
}
bias_filler {
type: "constant"
value: 0.2
}
}
}
layer {
name: "inception_4c/relu_3x3_reduce"
type: "ReLU"
bottom: "inception_4c/3x3_reduce"
top: "inception_4c/3x3_reduce"
}
layer {
name: "inception_4c/3x3"
type: "Convolution"
bottom: "inception_4c/3x3_reduce"
top: "inception_4c/3x3"
param {
lr_mult: 1
decay_mult: 1
}
param {
lr_mult: 2
decay_mult: 0
}
convolution_param {
num_output: 256
pad: 1
kernel_size: 3
weight_filler {
type: "xavier"
std: 0.03
}
bias_filler {
type: "constant"
value: 0.2
}
}
}
layer {
name: "inception_4c/relu_3x3"
type: "ReLU"
bottom: "inception_4c/3x3"
top: "inception_4c/3x3"
}
layer {
name: "inception_4c/5x5_reduce"
type: "Convolution"
bottom: "inception_4b/output"
top: "inception_4c/5x5_reduce"
param {
lr_mult: 1
decay_mult: 1
}
param {
lr_mult: 2
decay_mult: 0
}
convolution_param {
num_output: 24
kernel_size: 1
weight_filler {
type: "xavier"
std: 0.2
}
bias_filler {
type: "constant"
value: 0.2
}
}
}
layer {
name: "inception_4c/relu_5x5_reduce"
type: "ReLU"
bottom: "inception_4c/5x5_reduce"
top: "inception_4c/5x5_reduce"
}
layer {
name: "inception_4c/5x5"
type: "Convolution"
bottom: "inception_4c/5x5_reduce"
top: "inception_4c/5x5"
param {
lr_mult: 1
decay_mult: 1
}
param {
lr_mult: 2
decay_mult: 0
}
convolution_param {
num_output: 64
pad: 2
kernel_size: 5
weight_filler {
type: "xavier"
std: 0.03
}
bias_filler {
type: "constant"
value: 0.2
}
}
}
layer {
name: "inception_4c/relu_5x5"
type: "ReLU"
bottom: "inception_4c/5x5"
top: "inception_4c/5x5"
}
layer {
name: "inception_4c/pool"
type: "Pooling"
bottom: "inception_4b/output"
top: "inception_4c/pool"
pooling_param {
pool: MAX
kernel_size: 3
stride: 1
pad: 1
}
}
layer {
name: "inception_4c/pool_proj"
type: "Convolution"
bottom: "inception_4c/pool"
top: "inception_4c/pool_proj"
param {
lr_mult: 1
decay_mult: 1
}
param {
lr_mult: 2
decay_mult: 0
}
convolution_param {
num_output: 64
kernel_size: 1
weight_filler {
type: "xavier"
std: 0.1
}
bias_filler {
type: "constant"
value: 0.2
}
}
}
layer {
name: "inception_4c/relu_pool_proj"
type: "ReLU"
bottom: "inception_4c/pool_proj"
top: "inception_4c/pool_proj"
}
layer {
name: "inception_4c/output"
type: "Concat"
bottom: "inception_4c/1x1"
bottom: "inception_4c/3x3"
bottom: "inception_4c/5x5"
bottom: "inception_4c/pool_proj"
top: "inception_4c/output"
}
layer {
name: "inception_4d/1x1"
type: "Convolution"
bottom: "inception_4c/output"
top: "inception_4d/1x1"
param {
lr_mult: 1
decay_mult: 1
}
param {
lr_mult: 2
decay_mult: 0
}
convolution_param {
num_output: 112
kernel_size: 1
weight_filler {
type: "xavier"
std: 0.03
}
bias_filler {
type: "constant"
value: 0.2
}
}
}
layer {
name: "inception_4d/relu_1x1"
type: "ReLU"
bottom: "inception_4d/1x1"
…
I0515 19:31:10.477967   577 net.cpp:159] Memory required for data: 699835400
I0515 19:31:10.477972   577 layer_factory.hpp:77] Creating layer inception_4c/relu_5x5
I0515 19:31:10.477994   577 net.cpp:94] Creating Layer inception_4c/relu_5x5
I0515 19:31:10.477999   577 net.cpp:435] inception_4c/relu_5x5 <- inception_4c/5x5
I0515 19:31:10.478006   577 net.cpp:396] inception_4c/relu_5x5 -> inception_4c/5x5 (in-place)
I0515 19:31:10.478014   577 net.cpp:144] Setting up inception_4c/relu_5x5
I0515 19:31:10.478019   577 net.cpp:151] Top shape: 16 64 14 14 (200704)
I0515 19:31:10.478022   577 net.cpp:159] Memory required for data: 700638216
I0515 19:31:10.478026   577 layer_factory.hpp:77] Creating layer inception_4c/pool
I0515 19:31:10.478034   577 net.cpp:94] Creating Layer inception_4c/pool
I0515 19:31:10.478037   577 net.cpp:435] inception_4c/pool <- inception_4b/output_inception_4b/output_0_split_3
I0515 19:31:10.478044   577 net.cpp:409] inception_4c/pool -> inception_4c/pool
I0515 19:31:10.478087   577 net.cpp:144] Setting up inception_4c/pool
I0515 19:31:10.478093   577 net.cpp:151] Top shape: 16 512 14 14 (1605632)
I0515 19:31:10.478097   577 net.cpp:159] Memory required for data: 707060744
I0515 19:31:10.478101   577 layer_factory.hpp:77] Creating layer inception_4c/pool_proj
I0515 19:31:10.478111   577 net.cpp:94] Creating Layer inception_4c/pool_proj
I0515 19:31:10.478116   577 net.cpp:435] inception_4c/pool_proj <- inception_4c/pool
I0515 19:31:10.478123   577 net.cpp:409] inception_4c/pool_proj -> inception_4c/pool_proj
I0515 19:31:10.478583   577 net.cpp:144] Setting up inception_4c/pool_proj
I0515 19:31:10.478592   577 net.cpp:151] Top shape: 16 64 14 14 (200704)
I0515 19:31:10.478595   577 net.cpp:159] Memory required for data: 707863560
I0515 19:31:10.478601   577 layer_factory.hpp:77] Creating layer inception_4c/relu_pool_proj
I0515 19:31:10.478607   577 net.cpp:94] Creating Layer inception_4c/relu_pool_proj
I0515 19:31:10.478612   577 net.cpp:435] inception_4c/relu_pool_proj <- inception_4c/pool_proj
I0515 19:31:10.478618   577 net.cpp:396] inception_4c/relu_pool_proj -> inception_4c/pool_proj (in-place)
I0515 19:31:10.478624   577 net.cpp:144] Setting up inception_4c/relu_pool_proj
I0515 19:31:10.478629   577 net.cpp:151] Top shape: 16 64 14 14 (200704)
I0515 19:31:10.478632   577 net.cpp:159] Memory required for data: 708666376
I0515 19:31:10.478636   577 layer_factory.hpp:77] Creating layer inception_4c/output
I0515 19:31:10.478653   577 net.cpp:94] Creating Layer inception_4c/output
I0515 19:31:10.478657   577 net.cpp:435] inception_4c/output <- inception_4c/1x1
I0515 19:31:10.478668   577 net.cpp:435] inception_4c/output <- inception_4c/3x3
I0515 19:31:10.478672   577 net.cpp:435] inception_4c/output <- inception_4c/5x5
I0515 19:31:10.478677   577 net.cpp:435] inception_4c/output <- inception_4c/pool_proj
I0515 19:31:10.478683   577 net.cpp:409] inception_4c/output -> inception_4c/output
I0515 19:31:10.478709   577 net.cpp:144] Setting up inception_4c/output
I0515 19:31:10.478716   577 net.cpp:151] Top shape: 16 512 14 14 (1605632)
I0515 19:31:10.478719   577 net.cpp:159] Memory required for data: 715088904
I0515 19:31:10.478722   577 layer_factory.hpp:77] Creating layer inception_4c/output_inception_4c/output_0_split
I0515 19:31:10.478730   577 net.cpp:94] Creating Layer inception_4c/output_inception_4c/output_0_split
I0515 19:31:10.478734   577 net.cpp:435] inception_4c/output_inception_4c/output_0_split <- inception_4c/output
I0515 19:31:10.478741   577 net.cpp:409] inception_4c/output_inception_4c/output_0_split -> inception_4c/output_inception_4c/output_0_split_0
I0515 19:31:10.478749   577 net.cpp:409] inception_4c/output_inception_4c/output_0_split -> inception_4c/output_inception_4c/output_0_split_1
I0515 19:31:10.478756   577 net.cpp:409] inception_4c/output_inception_4c/output_0_split -> inception_4c/output_inception_4c/output_0_split_2
I0515 19:31:10.478762   577 net.cpp:409] inception_4c/output_inception_4c/output_0_split -> inception_4c/output_inception_4c/output_0_split_3
I0515 19:31:10.478816   577 net.cpp:144] Setting up inception_4c/output_inception_4c/output_0_split
I0515 19:31:10.478821   577 net.cpp:151] Top shape: 16 512 14 14 (1605632)
I0515 19:31:10.478837   577 net.cpp:151] Top shape: 16 512 14 14 (1605632)
I0515 19:31:10.478842   577 net.cpp:151] Top shape: 16 512 14 14 (1605632)
I0515 19:31:10.478847   577 net.cpp:151] Top shape: 16 512 14 14 (1605632)
I0515 19:31:10.478849   577 net.cpp:159] Memory required for data: 740779016
I0515 19:31:10.478852   577 layer_factory.hpp:77] Creating layer inception_4d/1x1
I0515 19:31:10.478863   577 net.cpp:94] Creating Layer inception_4d/1x1
I0515 19:31:10.478866   577 net.cpp:435] inception_4d/1x1 <- inception_4c/output_inception_4c/output_0_split_0
I0515 19:31:10.478874   577 net.cpp:409] inception_4d/1x1 -> inception_4d/1x1
I0515 19:31:10.480190   577 net.cpp:144] Setting up inception_4d/1x1
I0515 19:31:10.480204   577 net.cpp:151] Top shape: 16 112 14 14 (351232)
I0515 19:31:10.480209   577 net.cpp:159] Memory required for data: 742183944
I0515 19:31:10.480216   577 layer_factory.hpp:77] Creating layer inception_4d/relu_1x1
I0515 19:31:10.480224   577 net.cpp:94] Creating Layer inception_4d/relu_1x1
I0515 19:31:10.480228   577 net.cpp:435] inception_4d/relu_1x1 <- inception_4d/1x1
I0515 19:31:10.480237   577 net.cpp:396] inception_4d/relu_1x1 -> inception_4d/1x1 (in-place)
I0515 19:31:10.480244   577 net.cpp:144] Setting up inception_4d/relu_1x1
I0515 19:31:10.480249   577 net.cpp:151] Top shape: 16 112 14 14 (351232)
I0515 19:31:10.480252   577 net.cpp:159] Memory required for data: 743588872
I0515 19:31:10.480255   577 layer_factory.hpp:77] Creating layer inception_4d/3x3_reduce
I0515 19:31:10.480268   577 net.cpp:94] Creating Layer inception_4d/3x3_reduce
I0515 19:31:10.480273   577 net.cpp:435] inception_4d/3x3_reduce <- inception_4c/output_inception_4c/output_0_split_1
I0515 19:31:10.480280   577 net.cpp:409] inception_4d/3x3_reduce -> inception_4d/3x3_reduce
I0515 19:31:10.481114   577 net.cpp:144] Setting up inception_4d/3x3_reduce
I0515 19:31:10.481125   577 net.cpp:151] Top shape: 16 144 14 14 (451584)
I0515 19:31:10.481128   577 net.cpp:159] Memory required for data: 745395208
I0515 19:31:10.481134   577 layer_factory.hpp:77] Creating layer inception_4d/relu_3x3_reduce
I0515 19:31:10.481140   577 net.cpp:94] Creating Layer inception_4d/relu_3x3_reduce
I0515 19:31:10.481144   577 net.cpp:435] inception_4d/relu_3x3_reduce <- inception_4d/3x3_reduce
I0515 19:31:10.481150   577 net.cpp:396] inception_4d/relu_3x3_reduce -> inception_4d/3x3_reduce (in-place)
I0515 19:31:10.481158   577 net.cpp:144] Setting up inception_4d/relu_3x3_reduce
I0515 19:31:10.481163   577 net.cpp:151] Top shape: 16 144 14 14 (451584)
I0515 19:31:10.481168   577 net.cpp:159] Memory required for data: 747201544
I0515 19:31:10.481171   577 layer_factory.hpp:77] Creating layer inception_4d/3x3
I0515 19:31:10.481181   577 net.cpp:94] Creating Layer inception_4d/3x3
I0515 19:31:10.481185   577 net.cpp:435] inception_4d/3x3 <- inception_4d/3x3_reduce
I0515 19:31:10.481191   577 net.cpp:409] inception_4d/3x3 -> inception_4d/3x3
I0515 19:31:10.484588   577 net.cpp:144] Setting up inception_4d/3x3
I0515 19:31:10.484623   577 net.cpp:151] Top shape: 16 288 14 14 (903168)
I0515 19:31:10.484627   577 net.cpp:159] Memory required for data: 750814216
I0515 19:31:10.484633   577 layer_factory.hpp:77] Creating layer inception_4d/relu_3x3
I0515 19:31:10.484650   577 net.cpp:94] Creating Layer inception_4d/relu_3x3
I0515 19:31:10.484655   577 net.cpp:435] inception_4d/relu_3x3 <- inception_4d/3x3
I0515 19:31:10.484666   577 net.cpp:396] inception_4d/relu_3x3 -> inception_4d/3x3 (in-place)
I0515 19:31:10.484675   577 net.cpp:144] Setting up inception_4d/relu_3x3
I0515 19:31:10.484679   577 net.cpp:151] Top shape: 16 288 14 14 (903168)
I0515 19:31:10.484683   577 net.cpp:159] Memory required for data: 754426888
I0515 19:31:10.484685   577 layer_factory.hpp:77] Creating layer inception_4d/5x5_reduce
I0515 19:31:10.484695   577 net.cpp:94] Creating Layer inception_4d/5x5_reduce
I0515 19:31:10.484699   577 net.cpp:435] inception_4d/5x5_reduce <- inception_4c/output_inception_4c/output_0_split_2
I0515 19:31:10.484707   577 net.cpp:409] inception_4d/5x5_reduce -> inception_4d/5x5_reduce
I0515 19:31:10.485059   577 net.cpp:144] Setting up inception_4d/5x5_reduce
I0515 19:31:10.485069   577 net.cpp:151] Top shape: 16 32 14 14 (100352)
I0515 19:31:10.485074   577 net.cpp:159] Memory required for data: 754828296
I0515 19:31:10.485080   577 layer_factory.hpp:77] Creating layer inception_4d/relu_5x5_reduce
I0515 19:31:10.485085   577 net.cpp:94] Creating Layer inception_4d/relu_5x5_reduce
I0515 19:31:10.485090   577 net.cpp:435] inception_4d/relu_5x5_reduce <- inception_4d/5x5_reduce
I0515 19:31:10.485096   577 net.cpp:396] inception_4d/relu_5x5_reduce -> inception_4d/5x5_reduce (in-place)
I0515 19:31:10.485103   577 net.cpp:144] Setting up inception_4d/relu_5x5_reduce
I0515 19:31:10.485107   577 net.cpp:151] Top shape: 16 32 14 14 (100352)
I0515 19:31:10.485110   577 net.cpp:159] Memory required for data: 755229704
I0515 19:31:10.485114   577 layer_factory.hpp:77] Creating layer inception_4d/5x5
I0515 19:31:10.485123   577 net.cpp:94] Creating Layer inception_4d/5x5
I0515 19:31:10.485127   577 net.cpp:435] inception_4d/5x5 <- inception_4d/5x5_reduce
I0515 19:31:10.485133   577 net.cpp:409] inception_4d/5x5 -> inception_4d/5x5
I0515 19:31:10.485767   577 net.cpp:144] Setting up inception_4d/5x5
I0515 19:31:10.485779   577 net.cpp:151] Top shape: 16 64 14 14 (200704)
I0515 19:31:10.485781   577 net.cpp:159] Memory required for data: 756032520
I0515 19:31:10.485787   577 layer_factory.hpp:77] Creating layer inception_4d/relu_5x5
I0515 19:31:10.485795   577 net.cpp:94] Creating Layer inception_4d/relu_5x5
I0515 19:31:10.485798   577 net.cpp:435] inception_4d/relu_5x5 <- inception_4d/5x5
I0515 19:31:10.485805   577 net.cpp:396] inception_4d/relu_5x5 -> inception_4d/5x5 (in-place)
I0515 19:31:10.485811   577 net.cpp:144] Setting up inception_4d/relu_5x5
I0515 19:31:10.485816   577 net.cpp:151] Top shape: 16 64 14 14 (200704)
I0515 19:31:10.485819   577 net.cpp:159] Memory required for data: 756835336
I0515 19:31:10.485822   577 layer_factory.hpp:77] Creating layer inception_4d/pool
I0515 19:31:10.485831   577 net.cpp:94] Creating Layer inception_4d/pool
I0515 19:31:10.485834   577 net.cpp:435] inception_4d/pool <- inception_4c/output_inception_4c/output_0_split_3
I0515 19:31:10.485841   577 net.cpp:409] inception_4d/pool -> inception_4d/pool
I0515 19:31:10.485877   577 net.cpp:144] Setting up inception_4d/pool
I0515 19:31:10.485883   577 net.cpp:151] Top shape: 16 512 14 14 (1605632)
I0515 19:31:10.485886   577 net.cpp:159] Memory required for data: 763257864
I0515 19:31:10.485890   577 layer_factory.hpp:77] Creating layer inception_4d/pool_proj
I0515 19:31:10.485915   577 net.cpp:94] Creating Layer inception_4d/pool_proj
I0515 19:31:10.485919   577 net.cpp:435] inception_4d/pool_proj <- inception_4d/pool
I0515 19:31:10.485926   577 net.cpp:409] inception_4d/pool_proj -> inception_4d/pool_proj
I0515 19:31:10.486325   577 net.cpp:144] Setting up inception_4d/pool_proj
I0515 19:31:10.486333   577 net.cpp:151] Top shape: 16 64 14 14 (200704)
I0515 19:31:10.486337   577 net.cpp:159] Memory required for data: 764060680
I0515 19:31:10.486342   577 layer_factory.hpp:77] Creating layer inception_4d/relu_pool_proj
I0515 19:31:10.486348   577 net.cpp:94] Creating Layer inception_4d/relu_pool_proj
I0515 19:31:10.486352   577 net.cpp:435] inception_4d/relu_pool_proj <- inception_4d/pool_proj
I0515 19:31:10.486359   577 net.cpp:396] inception_4d/relu_pool_proj -> inception_4d/pool_proj (in-place)
I0515 19:31:10.486366   577 net.cpp:144] Setting up inception_4d/relu_pool_proj
I0515 19:31:10.486369   577 net.cpp:151] Top shape: 16 64 14 14 (200704)
I0515 19:31:10.486372   577 net.cpp:159] Memory required for data: 764863496
I0515 19:31:10.486377   577 layer_factory.hpp:77] Creating layer inception_4d/output
I0515 19:31:10.486383   577 net.cpp:94] Creating Layer inception_4d/output
I0515 19:31:10.486387   577 net.cpp:435] inception_4d/output <- inception_4d/1x1
I0515 19:31:10.486392   577 net.cpp:435] inception_4d/output <- inception_4d/3x3
I0515 19:31:10.486408   577 net.cpp:435] inception_4d/output <- inception_4d/5x5
I0515 19:31:10.486413   577 net.cpp:435] inception_4d/output <- inception_4d/pool_proj
I0515 19:31:10.486420   577 net.cpp:409] inception_4d/output -> inception_4d/output
I0515 19:31:10.486446   577 net.cpp:144] Setting up inception_4d/output
I0515 19:31:10.486452   577 net.cpp:151] Top shape: 16 528 14 14 (1655808)
I0515 19:31:10.486455   577 net.cpp:159] Memory required for data: 771486728
I0515 19:31:10.486459   577 layer_factory.hpp:77] Creating layer inception_4d/output_inception_4d/output_0_split
I0515 19:31:10.486466   577 net.cpp:94] Creating Layer inception_4d/output_inception_4d/output_0_split
I0515 19:31:10.486470   577 net.cpp:435] inception_4d/output_inception_4d/output_0_split <- inception_4d/output
I0515 19:31:10.486479   577 net.cpp:409] inception_4d/output_inception_4d/output_0_split -> inception_4d/output_inception_4d/output_0_split_0
I0515 19:31:10.486486   577 net.cpp:409] inception_4d/output_inception_4d/output_0_split -> inception_4d/output_inception_4d/output_0_split_1
I0515 19:31:10.486492   577 net.cpp:409] inception_4d/output_inception_4d/output_0_split -> inception_4d/output_inception_4d/output_0_split_2
I0515 19:31:10.486500   577 net.cpp:409] inception_4d/output_inception_4d/output_0_split -> inception_4d/output_inception_4d/output_0_split_3
I0515 19:31:10.486506   577 net.cpp:409] inception_4d/output_inception_4d/output_0_split -> inception_4d/output_inception_4d/output_0_split_4
I0515 19:31:10.486582   577 net.cpp:144] Setting up inception_4d/output_inception_4d/output_0_split
I0515 19:31:10.486589   577 net.cpp:151] Top shape: 16 528 14 14 (1655808)
I0515 19:31:10.486593   577 net.cpp:151] Top shape: 16 528 14 14 (1655808)
I0515 19:31:10.486598   577 net.cpp:151] Top shape: 16 528 14 14 (1655808)
I0515 19:31:10.486601   577 net.cpp:151] Top shape: 16 528 14 14 (1655808)
I0515 19:31:10.486605   577 net.cpp:151] Top shape: 16 528 14 14 (1655808)
I0515 19:31:10.486608   577 net.cpp:159] Memory required for data: 804602888
I0515 19:31:10.486613   577 layer_factory.hpp:77] Creating layer loss2/ave_pool
I0515 19:31:10.486618   577 net.cpp:94] Creating Layer loss2/ave_pool
I0515 19:31:10.486622   577 net.cpp:435] loss2/ave_pool <- inception_4d/output_inception_4d/output_0_split_0
I0515 19:31:10.486629   577 net.cpp:409] loss2/ave_pool -> loss2/ave_pool
I0515 19:31:10.486670   577 net.cpp:144] Setting up loss2/ave_pool
I0515 19:31:10.486677   577 net.cpp:151] Top shape: 16 528 4 4 (135168)
I0515 19:31:10.486680   577 net.cpp:159] Memory required for data: 805143560
I0515 19:31:10.486683   577 layer_factory.hpp:77] Creating layer loss2/conv
I0515 19:31:10.486694   577 net.cpp:94] Creating Layer loss2/conv
I0515 19:31:10.486698   577 net.cpp:435] loss2/conv <- loss2/ave_pool
I0515 19:31:10.486704   577 net.cpp:409] loss2/conv -> loss2/conv
I0515 19:31:10.488008   577 net.cpp:144] Setting up loss2/conv
I0515 19:31:10.488023   577 net.cpp:151] Top shape: 16 128 4 4 (32768)
I0515 19:31:10.488025   577 net.cpp:159] Memory required for data: 805274632
I0515 19:31:10.488032   577 layer_factory.hpp:77] Creating layer loss2/relu_conv
I0515 19:31:10.488039   577 net.cpp:94] Creating Layer loss2/relu_conv
I0515 19:31:10.488044   577 net.cpp:435] loss2/relu_conv <- loss2/conv
I0515 19:31:10.488049   577 net.cpp:396] loss2/relu_conv -> loss2/conv (in-place)
I0515 19:31:10.488057   577 net.cpp:144] Setting up loss2/relu_conv
I0515 19:31:10.488061   577 net.cpp:151] Top shape: 16 128 4 4 (32768)
I0515 19:31:10.488065   577 net.cpp:159] Memory required for data: 805405704
I0515 19:31:10.488067   577 layer_factory.hpp:77] Creating layer loss2/fc
I0515 19:31:10.488075   577 net.cpp:94] Creating Layer loss2/fc
I0515 19:31:10.488078   577 net.cpp:435] loss2/fc <- loss2/conv
I0515 19:31:10.488085   577 net.cpp:409] loss2/fc -> loss2/fc
I0515 19:31:10.504714   577 net.cpp:144] Setting up loss2/fc
I0515 19:31:10.504729   577 net.cpp:151] Top shape: 16 1024 (16384)
I0515 19:31:10.504732   577 net.cpp:159] Memory required for data: 805471240
I0515 19:31:10.504739   577 layer_factory.hpp:77] Creating layer loss2/relu_fc
I0515 19:31:10.504765   577 net.cpp:94] Creating Layer loss2/relu_fc
I0515 19:31:10.504770   577 net.cpp:435] loss2/relu_fc <- loss2/fc
I0515 19:31:10.504776   577 net.cpp:396] loss2/relu_fc -> loss2/fc (in-place)
I0515 19:31:10.504786   577 net.cpp:144] Setting up loss2/relu_fc
I0515 19:31:10.504789   577 net.cpp:151] Top shape: 16 1024 (16384)
I0515 19:31:10.504791   577 net.cpp:159] Memory required for data: 805536776
I0515 19:31:10.504796   577 layer_factory.hpp:77] Creating layer loss2/drop_fc
I0515 19:31:10.504801   577 net.cpp:94] Creating Layer loss2/drop_fc
I0515 19:31:10.504806   577 net.cpp:435] loss2/drop_fc <- loss2/fc
I0515 19:31:10.504811   577 net.cpp:396] loss2/drop_fc -> loss2/fc (in-place)
I0515 19:31:10.504850   577 net.cpp:144] Setting up loss2/drop_fc
I0515 19:31:10.504856   577 net.cpp:151] Top shape: 16 1024 (16384)
I0515 19:31:10.504870   577 net.cpp:159] Memory required for data: 805602312
I0515 19:31:10.504873   577 layer_factory.hpp:77] Creating layer loss2/classifier
I0515 19:31:10.504881   577 net.cpp:94] Creating Layer loss2/classifier
I0515 19:31:10.504895   577 net.cpp:435] loss2/classifier <- loss2/fc
I0515 19:31:10.504902   577 net.cpp:409] loss2/classifier -> loss2/classifier
I0515 19:31:10.505019   577 net.cpp:144] Setting up loss2/classifier
I0515 19:31:10.505028   577 net.cpp:151] Top shape: 16 3 (48)
I0515 19:31:10.505029   577 net.cpp:159] Memory required for data: 805602504
I0515 19:31:10.505035   577 layer_factory.hpp:77] Creating layer loss2/classifier_loss2/classifier_0_split
I0515 19:31:10.505043   577 net.cpp:94] Creating Layer loss2/classifier_loss2/classifier_0_split
I0515 19:31:10.505045   577 net.cpp:435] loss2/classifier_loss2/classifier_0_split <- loss2/classifier
I0515 19:31:10.505051   577 net.cpp:409] loss2/classifier_loss2/classifier_0_split -> loss2/classifier_loss2/classifier_0_split_0
I0515 19:31:10.505064   577 net.cpp:409] loss2/classifier_loss2/classifier_0_split -> loss2/classifier_loss2/classifier_0_split_1
I0515 19:31:10.505116   577 net.cpp:144] Setting up loss2/classifier_loss2/classifier_0_split
I0515 19:31:10.505122   577 net.cpp:151] Top shape: 16 3 (48)
I0515 19:31:10.505125   577 net.cpp:151] Top shape: 16 3 (48)
I0515 19:31:10.505128   577 net.cpp:159] Memory required for data: 805602888
I0515 19:31:10.505131   577 layer_factory.hpp:77] Creating layer loss2/loss
I0515 19:31:10.505162   577 net.cpp:94] Creating Layer loss2/loss
I0515 19:31:10.505182   577 net.cpp:435] loss2/loss <- loss2/classifier_loss2/classifier_0_split_0
I0515 19:31:10.505188   577 net.cpp:435] loss2/loss <- label_val-data_1_split_2
…
I0515 19:31:10.505401   577 net.cpp:144] Setting up loss2/top-1
I0515 19:31:10.505421   577 net.cpp:151] Top shape: (1)
I0515 19:31:10.505424   577 net.cpp:159] Memory required for data: 805602896
I0515 19:31:10.505427   577 layer_factory.hpp:77] Creating layer inception_4e/1x1
I0515 19:31:10.505440   577 net.cpp:94] Creating Layer inception_4e/1x1
I0515 19:31:10.505445   577 net.cpp:435] inception_4e/1x1 <- inception_4d/output_inception_4d/output_0_split_1
I0515 19:31:10.505455   577 net.cpp:409] inception_4e/1x1 -> inception_4e/1x1
I0515 19:31:10.506605   577 net.cpp:144] Setting up inception_4e/1x1
I0515 19:31:10.506646   577 net.cpp:151] Top shape: 16 256 14 14 (802816)
I0515 19:31:10.506671   577 net.cpp:159] Memory required for data: 808814160
I0515 19:31:10.506677   577 layer_factory.hpp:77] Creating layer inception_4e/relu_1x1
I0515 19:31:10.506683   577 net.cpp:94] Creating Layer inception_4e/relu_1x1
I0515 19:31:10.506687   577 net.cpp:435] inception_4e/relu_1x1 <- inception_4e/1x1
I0515 19:31:10.506693   577 net.cpp:396] inception_4e/relu_1x1 -> inception_4e/1x1 (in-place)
I0515 19:31:10.506711   577 net.cpp:144] Setting up inception_4e/relu_1x1
I0515 19:31:10.506714   577 net.cpp:151] Top shape: 16 256 14 14 (802816)
I0515 19:31:10.506718   577 net.cpp:159] Memory required for data: 812025424
I0515 19:31:10.506722   577 layer_factory.hpp:77] Creating layer inception_4e/3x3_reduce
I0515 19:31:10.506737   577 net.cpp:94] Creating Layer inception_4e/3x3_reduce
I0515 19:31:10.506742   577 net.cpp:435] inception_4e/3x3_reduce <- inception_4d/output_inception_4d/output_0_split_2
I0515 19:31:10.506762   577 net.cpp:409] inception_4e/3x3_reduce -> inception_4e/3x3_reduce
I0515 19:31:10.508226   577 net.cpp:144] Setting up inception_4e/3x3_reduce
I0515 19:31:10.508242   577 net.cpp:151] Top shape: 16 160 14 14 (501760)
I0515 19:31:10.508246   577 net.cpp:159] Memory required for data: 814032464
I0515 19:31:10.508252   577 layer_factory.hpp:77] Creating layer inception_4e/relu_3x3_reduce
I0515 19:31:10.508260   577 net.cpp:94] Creating Layer inception_4e/relu_3x3_reduce
I0515 19:31:10.508265   577 net.cpp:435] inception_4e/relu_3x3_reduce <- inception_4e/3x3_reduce
I0515 19:31:10.508273   577 net.cpp:396] inception_4e/relu_3x3_reduce -> inception_4e/3x3_reduce (in-place)
I0515 19:31:10.508281   577 net.cpp:144] Setting up inception_4e/relu_3x3_reduce
I0515 19:31:10.508286   577 net.cpp:151] Top shape: 16 160 14 14 (501760)
I0515 19:31:10.508289   577 net.cpp:159] Memory required for data: 816039504
I0515 19:31:10.508293   577 layer_factory.hpp:77] Creating layer inception_4e/3x3
I0515 19:31:10.508342   577 net.cpp:94] Creating Layer inception_4e/3x3
I0515 19:31:10.508345   577 net.cpp:435] inception_4e/3x3 <- inception_4e/3x3_reduce
I0515 19:31:10.508368   577 net.cpp:409] inception_4e/3x3 -> inception_4e/3x3
I0515 19:31:10.519615   577 net.cpp:144] Setting up inception_4e/3x3
I0515 19:31:10.519636   577 net.cpp:151] Top shape: 16 320 14 14 (1003520)
I0515 19:31:10.519654   577 net.cpp:159] Memory required for data: 820053584
I0515 19:31:10.519680   577 layer_factory.hpp:77] Creating layer inception_4e/relu_3x3
I0515 19:31:10.519692   577 net.cpp:94] Creating Layer inception_4e/relu_3x3
I0515 19:31:10.519697   577 net.cpp:435] inception_4e/relu_3x3 <- inception_4e/3x3
I0515 19:31:10.519703   577 net.cpp:396] inception_4e/relu_3x3 -> inception_4e/3x3 (in-place)
I0515 19:31:10.519712   577 net.cpp:144] Setting up inception_4e/relu_3x3
I0515 19:31:10.519717   577 net.cpp:151] Top shape: 16 320 14 14 (1003520)
I0515 19:31:10.519721   577 net.cpp:159] Memory required for data: 824067664
I0515 19:31:10.519723   577 layer_factory.hpp:77] Creating layer inception_4e/5x5_reduce
I0515 19:31:10.519735   577 net.cpp:94] Creating Layer inception_4e/5x5_reduce
I0515 19:31:10.519739   577 net.cpp:435] inception_4e/5x5_reduce <- inception_4d/output_inception_4d/output_0_split_3
I0515 19:31:10.519748   577 net.cpp:409] inception_4e/5x5_reduce -> inception_4e/5x5_reduce
I0515 19:31:10.520141   577 net.cpp:144] Setting up inception_4e/5x5_reduce
I0515 19:31:10.520151   577 net.cpp:151] Top shape: 16 32 14 14 (100352)
I0515 19:31:10.520154   577 net.cpp:159] Memory required for data: 824469072
I0515 19:31:10.520161   577 layer_factory.hpp:77] Creating layer inception_4e/relu_5x5_reduce
I0515 19:31:10.520169   577 net.cpp:94] Creating Layer inception_4e/relu_5x5_reduce
I0515 19:31:10.520174   577 net.cpp:435] inception_4e/relu_5x5_reduce <- inception_4e/5x5_reduce
I0515 19:31:10.520182   577 net.cpp:396] inception_4e/relu_5x5_reduce -> inception_4e/5x5_reduce (in-place)
I0515 19:31:10.520190   577 net.cpp:144] Setting up inception_4e/relu_5x5_reduce
I0515 19:31:10.520210   577 net.cpp:151] Top shape: 16 32 14 14 (100352)
I0515 19:31:10.520213   577 net.cpp:159] Memory required for data: 824870480
I0515 19:31:10.520216   577 layer_factory.hpp:77] Creating layer inception_4e/5x5
I0515 19:31:10.520227   577 net.cpp:94] Creating Layer inception_4e/5x5
I0515 19:31:10.520231   577 net.cpp:435] inception_4e/5x5 <- inception_4e/5x5_reduce
I0515 19:31:10.520237   577 net.cpp:409] inception_4e/5x5 -> inception_4e/5x5
I0515 19:31:10.521092   577 net.cpp:144] Setting up inception_4e/5x5
I0515 19:31:10.521102   577 net.cpp:151] Top shape: 16 128 14 14 (401408)
I0515 19:31:10.521106   577 net.cpp:159] Memory required for data: 826476112
I0515 19:31:10.521112   577 layer_factory.hpp:77] Creating layer inception_4e/relu_5x5
I0515 19:31:10.521118   577 net.cpp:94] Creating Layer inception_4e/relu_5x5
I0515 19:31:10.521122   577 net.cpp:435] inception_4e/relu_5x5 <- inception_4e/5x5
I0515 19:31:10.521129   577 net.cpp:396] inception_4e/relu_5x5 -> inception_4e/5x5 (in-place)
I0515 19:31:10.521137   577 net.cpp:144] Setting up inception_4e/relu_5x5
I0515 19:31:10.521142   577 net.cpp:151] Top shape: 16 128 14 14 (401408)
I0515 19:31:10.521144   577 net.cpp:159] Memory required for data: 828081744
I0515 19:31:10.521148   577 layer_factory.hpp:77] Creating layer inception_4e/pool
I0515 19:31:10.521154   577 net.cpp:94] Creating Layer inception_4e/pool
I0515 19:31:10.521158   577 net.cpp:435] inception_4e/pool <- inception_4d/output_inception_4d/output_0_split_4
I0515 19:31:10.521168   577 net.cpp:409] inception_4e/pool -> inception_4e/pool
I0515 19:31:10.521209   577 net.cpp:144] Setting up inception_4e/pool
I0515 19:31:10.521216   577 net.cpp:151] Top shape: 16 528 14 14 (1655808)
I0515 19:31:10.521220   577 net.cpp:159] Memory required for data: 834704976
I0515 19:31:10.521224   577 layer_factory.hpp:77] Creating layer inception_4e/pool_proj
I0515 19:31:10.521237   577 net.cpp:94] Creating Layer inception_4e/pool_proj
I0515 19:31:10.521242   577 net.cpp:435] inception_4e/pool_proj <- inception_4e/pool
I0515 19:31:10.521248   577 net.cpp:409] inception_4e/pool_proj -> inception_4e/pool_proj
I0515 19:31:10.521905   577 net.cpp:144] Setting up inception_4e/pool_proj
I0515 19:31:10.521915   577 net.cpp:151] Top shape: 16 128 14 14 (401408)
I0515 19:31:10.521919   577 net.cpp:159] Memory required for data: 836310608
I0515 19:31:10.521924   577 layer_factory.hpp:77] Creating layer inception_4e/relu_pool_proj
I0515 19:31:10.521931   577 net.cpp:94] Creating Layer inception_4e/relu_pool_proj
I0515 19:31:10.521935   577 net.cpp:435] inception_4e/relu_pool_proj <- inception_4e/pool_proj
I0515 19:31:10.521944   577 net.cpp:396] inception_4e/relu_pool_proj -> inception_4e/pool_proj (in-place)
I0515 19:31:10.521950   577 net.cpp:144] Setting up inception_4e/relu_pool_proj
I0515 19:31:10.521955   577 net.cpp:151] Top shape: 16 128 14 14 (401408)
I0515 19:31:10.521957   577 net.cpp:159] Memory required for data: 837916240
I0515 19:31:10.521960   577 layer_factory.hpp:77] Creating layer inception_4e/output
I0515 19:31:10.521967   577 net.cpp:94] Creating Layer inception_4e/output
I0515 19:31:10.521971   577 net.cpp:435] inception_4e/output <- inception_4e/1x1
I0515 19:31:10.521975   577 net.cpp:435] inception_4e/output <- inception_4e/3x3
I0515 19:31:10.521981   577 net.cpp:435] inception_4e/output <- inception_4e/5x5
I0515 19:31:10.521984   577 net.cpp:435] inception_4e/output <- inception_4e/pool_proj
I0515 19:31:10.521989   577 net.cpp:409] inception_4e/output -> inception_4e/output
I0515 19:31:10.522017   577 net.cpp:144] Setting up inception_4e/output
I0515 19:31:10.522023   577 net.cpp:151] Top shape: 16 832 14 14 (2609152)
I0515 19:31:10.522027   577 net.cpp:159] Memory required for data: 848352848
I0515 19:31:10.522029   577 layer_factory.hpp:77] Creating layer pool4/3x3_s2
I0515 19:31:10.522037   577 net.cpp:94] Creating Layer pool4/3x3_s2
I0515 19:31:10.522042   577 net.cpp:435] pool4/3x3_s2 <- inception_4e/output
I0515 19:31:10.522047   577 net.cpp:409] pool4/3x3_s2 -> pool4/3x3_s2
I0515 19:31:10.522099   577 net.cpp:144] Setting up pool4/3x3_s2
I0515 19:31:10.522106   577 net.cpp:151] Top shape: 16 832 7 7 (652288)
I0515 19:31:10.522109   577 net.cpp:159] Memory required for data: 850962000
I0515 19:31:10.522114   577 layer_factory.hpp:77] Creating layer pool4/3x3_s2_pool4/3x3_s2_0_split
I0515 19:31:10.522119   577 net.cpp:94] Creating Layer pool4/3x3_s2_pool4/3x3_s2_0_split
I0515 19:31:10.522123   577 net.cpp:435] pool4/3x3_s2_pool4/3x3_s2_0_split <- pool4/3x3_s2
I0515 19:31:10.522131   577 net.cpp:409] pool4/3x3_s2_pool4/3x3_s2_0_split -> pool4/3x3_s2_pool4/3x3_s2_0_split_0
I0515 19:31:10.522138   577 net.cpp:409] pool4/3x3_s2_pool4/3x3_s2_0_split -> pool4/3x3_s2_pool4/3x3_s2_0_split_1
I0515 19:31:10.522145   577 net.cpp:409] pool4/3x3_s2_pool4/3x3_s2_0_split -> pool4/3x3_s2_pool4/3x3_s2_0_split_2
I0515 19:31:10.522156   577 net.cpp:409] pool4/3x3_s2_pool4/3x3_s2_0_split -> pool4/3x3_s2_pool4/3x3_s2_0_split_3
I0515 19:31:10.522212   577 net.cpp:144] Setting up pool4/3x3_s2_pool4/3x3_s2_0_split
I0515 19:31:10.522219   577 net.cpp:151] Top shape: 16 832 7 7 (652288)
I0515 19:31:10.522223   577 net.cpp:151] Top shape: 16 832 7 7 (652288)
I0515 19:31:10.522226   577 net.cpp:151] Top shape: 16 832 7 7 (652288)
I0515 19:31:10.522230   577 net.cpp:151] Top shape: 16 832 7 7 (652288)
I0515 19:31:10.522233   577 net.cpp:159] Memory required for data: 861398608
I0515 19:31:10.522238   577 layer_factory.hpp:77] Creating layer inception_5a/1x1
I0515 19:31:10.522248   577 net.cpp:94] Creating Layer inception_5a/1x1
I0515 19:31:10.522251   577 net.cpp:435] inception_5a/1x1 <- pool4/3x3_s2_pool4/3x3_s2_0_split_0
I0515 19:31:10.522260   577 net.cpp:409] inception_5a/1x1 -> inception_5a/1x1
I0515 19:31:10.524359   577 net.cpp:144] Setting up inception_5a/1x1
I0515 19:31:10.524374   577 net.cpp:151] Top shape: 16 256 7 7 (200704)
I0515 19:31:10.524377   577 net.cpp:159] Memory required for data: 862201424
I0515 19:31:10.524384   577 layer_factory.hpp:77] Creating layer inception_5a/relu_1x1
I0515 19:31:10.524394   577 net.cpp:94] Creating Layer inception_5a/relu_1x1
I0515 19:31:10.524397   577 net.cpp:435] inception_5a/relu_1x1 <- inception_5a/1x1
I0515 19:31:10.524403   577 net.cpp:396] inception_5a/relu_1x1 -> inception_5a/1x1 (in-place)
I0515 19:31:10.524410   577 net.cpp:144] Setting up inception_5a/relu_1x1
I0515 19:31:10.524415   577 net.cpp:151] Top shape: 16 256 7 7 (200704)
I0515 19:31:10.524418   577 net.cpp:159] Memory required for data: 863004240
I0515 19:31:10.524421   577 layer_factory.hpp:77] Creating layer inception_5a/3x3_reduce
I0515 19:31:10.524431   577 net.cpp:94] Creating Layer inception_5a/3x3_reduce
I0515 19:31:10.524435   577 net.cpp:435] inception_5a/3x3_reduce <- pool4/3x3_s2_pool4/3x3_s2_0_split_1
I0515 19:31:10.524443   577 net.cpp:409] inception_5a/3x3_reduce -> inception_5a/3x3_reduce
I0515 19:31:10.526280   577 net.cpp:144] Setting up inception_5a/3x3_reduce
I0515 19:31:10.526294   577 net.cpp:151] Top shape: 16 160 7 7 (125440)
I0515 19:31:10.526298   577 net.cpp:159] Memory required for data: 863506000
I0515 19:31:10.526304   577 layer_factory.hpp:77] Creating layer inception_5a/relu_3x3_reduce
I0515 19:31:10.526310   577 net.cpp:94] Creating Layer inception_5a/relu_3x3_reduce
I0515 19:31:10.526315   577 net.cpp:435] inception_5a/relu_3x3_reduce <- inception_5a/3x3_reduce
I0515 19:31:10.526324   577 net.cpp:396] inception_5a/relu_3x3_reduce -> inception_5a/3x3_reduce (in-place)
I0515 19:31:10.526331   577 net.cpp:144] Setting up inception_5a/relu_3x3_reduce
I0515 19:31:10.526336   577 net.cpp:151] Top shape: 16 160 7 7 (125440)
I0515 19:31:10.526340   577 net.cpp:159] Memory required for data: 864007760
I0515 19:31:10.526342   577 layer_factory.hpp:77] Creating layer inception_5a/3x3
I0515 19:31:10.526352   577 net.cpp:94] Creating Layer inception_5a/3x3
I0515 19:31:10.526356   577 net.cpp:435] inception_5a/3x3 <- inception_5a/3x3_reduce
I0515 19:31:10.526363   577 net.cpp:409] inception_5a/3x3 -> inception_5a/3x3
I0515 19:31:10.530297   577 net.cpp:144] Setting up inception_5a/3x3
I0515 19:31:10.530326   577 net.cpp:151] Top shape: 16 320 7 7 (250880)
I0515 19:31:10.530331   577 net.cpp:159] Memory required for data: 865011280
I0515 19:31:10.530337   577 layer_factory.hpp:77] Creating layer inception_5a/relu_3x3
I0515 19:31:10.530344   577 net.cpp:94] Creating Layer inception_5a/relu_3x3
I0515 19:31:10.530349   577 net.cpp:435] inception_5a/relu_3x3 <- inception_5a/3x3
I0515 19:31:10.530355   577 net.cpp:396] inception_5a/relu_3x3 -> inception_5a/3x3 (in-place)
I0515 19:31:10.530364   577 net.cpp:144] Setting up inception_5a/relu_3x3
I0515 19:31:10.530367   577 net.cpp:151] Top shape: 16 320 7 7 (250880)
I0515 19:31:10.530370   577 net.cpp:159] Memory required for data: 866014800
I0515 19:31:10.530373   577 layer_factory.hpp:77] Creating layer inception_5a/5x5_reduce
I0515 19:31:10.530390   577 net.cpp:94] Creating Layer inception_5a/5x5_reduce
I0515 19:31:10.530396   577 net.cpp:435] inception_5a/5x5_reduce <- pool4/3x3_s2_pool4/3x3_s2_0_split_2
I0515 19:31:10.530402   577 net.cpp:409] inception_5a/5x5_reduce -> inception_5a/5x5_reduce
I0515 19:31:10.530849   577 net.cpp:144] Setting up inception_5a/5x5_reduce
I0515 19:31:10.530860   577 net.cpp:151] Top shape: 16 32 7 7 (25088)
I0515 19:31:10.530864   577 net.cpp:159] Memory required for data: 866115152
I0515 19:31:10.530870   577 layer_factory.hpp:77] Creating layer inception_5a/relu_5x5_reduce
I0515 19:31:10.530876   577 net.cpp:94] Creating Layer inception_5a/relu_5x5_reduce
I0515 19:31:10.530880   577 net.cpp:435] inception_5a/relu_5x5_reduce <- inception_5a/5x5_reduce
I0515 19:31:10.530889   577 net.cpp:396] inception_5a/relu_5x5_reduce -> inception_5a/5x5_reduce (in-place)
I0515 19:31:10.530895   577 net.cpp:144] Setting up inception_5a/relu_5x5_reduce
I0515 19:31:10.530900   577 net.cpp:151] Top shape: 16 32 7 7 (25088)
I0515 19:31:10.530903   577 net.cpp:159] Memory required for data: 866215504
I0515 19:31:10.530922   577 layer_factory.hpp:77] Creating layer inception_5a/5x5
I0515 19:31:10.530932   577 net.cpp:94] Creating Layer inception_5a/5x5
I0515 19:31:10.530936   577 net.cpp:435] inception_5a/5x5 <- inception_5a/5x5_reduce
I0515 19:31:10.530943   577 net.cpp:409] inception_5a/5x5 -> inception_5a/5x5
I0515 19:31:10.531823   577 net.cpp:144] Setting up inception_5a/5x5
I0515 19:31:10.531836   577 net.cpp:151] Top shape: 16 128 7 7 (100352)
I0515 19:31:10.531839   577 net.cpp:159] Memory required for data: 866616912
I0515 19:31:10.531846   577 layer_factory.hpp:77] Creating layer inception_5a/relu_5x5
I0515 19:31:10.531853   577 net.cpp:94] Creating Layer inception_5a/relu_5x5
I0515 19:31:10.531858   577 net.cpp:435] inception_5a/relu_5x5 <- inception_5a/5x5
I0515 19:31:10.531863   577 net.cpp:396] inception_5a/relu_5x5 -> inception_5a/5x5 (in-place)
I0515 19:31:10.531870   577 net.cpp:144] Setting up inception_5a/relu_5x5
I0515 19:31:10.531875   577 net.cpp:151] Top shape: 16 128 7 7 (100352)
I0515 19:31:10.531878   577 net.cpp:159] Memory required for data: 867018320
I0515 19:31:10.531882   577 layer_factory.hpp:77] Creating layer inception_5a/pool
I0515 19:31:10.531890   577 net.cpp:94] Creating Layer inception_5a/pool
I0515 19:31:10.531894   577 net.cpp:435] inception_5a/pool <- pool4/3x3_s2_pool4/3x3_s2_0_split_3
I0515 19:31:10.531900   577 net.cpp:409] inception_5a/pool -> inception_5a/pool
I0515 19:31:10.531962   577 net.cpp:144] Setting up inception_5a/pool
I0515 19:31:10.531970   577 net.cpp:151] Top shape: 16 832 7 7 (652288)
I0515 19:31:10.531975   577 net.cpp:159] Memory required for data: 869627472
I0515 19:31:10.531977   577 layer_factory.hpp:77] Creating layer inception_5a/pool_proj
I0515 19:31:10.531985   577 net.cpp:94] Creating Layer inception_5a/pool_proj
I0515 19:31:10.531989   577 net.cpp:435] inception_5a/pool_proj <- inception_5a/pool
I0515 19:31:10.531996   577 net.cpp:409] inception_5a/pool_proj -> inception_5a/pool_proj
I0515 19:31:10.533571   577 net.cpp:144] Setting up inception_5a/pool_proj
I0515 19:31:10.533583   577 net.cpp:151] Top shape: 16 128 7 7 (100352)
I0515 19:31:10.533587   577 net.cpp:159] Memory required for data: 870028880
I0515 19:31:10.533608   577 layer_factory.hpp:77] Creating layer inception_5a/relu_pool_proj
I0515 19:31:10.533618   577 net.cpp:94] Creating Layer inception_5a/relu_pool_proj
I0515 19:31:10.533623   577 net.cpp:435] inception_5a/relu_pool_proj <- inception_5a/pool_proj
I0515 19:31:10.533628   577 net.cpp:396] inception_5a/relu_pool_proj -> inception_5a/pool_proj (in-place)
I0515 19:31:10.533666   577 net.cpp:144] Setting up inception_5a/relu_pool_proj
I0515 19:31:10.533675   577 net.cpp:151] Top shape: 16 128 7 7 (100352)
I0515 19:31:10.533679   577 net.cpp:159] Memory required for data: 870430288
I0515 19:31:10.533682   577 layer_factory.hpp:77] Creating layer inception_5a/output
I0515 19:31:10.533689   577 net.cpp:94] Creating Layer inception_5a/output
I0515 19:31:10.533692   577 net.cpp:435] inception_5a/output <- inception_5a/1x1
I0515 19:31:10.533697   577 net.cpp:435] inception_5a/output <- inception_5a/3x3
I0515 19:31:10.533701   577 net.cpp:435] inception_5a/output <- inception_5a/5x5
I0515 19:31:10.533705   577 net.cpp:435] inception_5a/output <- inception_5a/pool_proj
I0515 19:31:10.533710   577 net.cpp:409] inception_5a/output -> inception_5a/output
I0515 19:31:10.533740   577 net.cpp:144] Setting up inception_5a/output
I0515 19:31:10.533746   577 net.cpp:151] Top shape: 16 832 7 7 (652288)
I0515 19:31:10.533749   577 net.cpp:159] Memory required for data: 873039440
I0515 19:31:10.533753   577 layer_factory.hpp:77] Creating layer inception_5a/output_inception_5a/output_0_split
I0515 19:31:10.533761   577 net.cpp:94] Creating Layer inception_5a/output_inception_5a/output_0_split
I0515 19:31:10.533766   577 net.cpp:435] inception_5a/output_inception_5a/output_0_split <- inception_5a/output
I0515 19:31:10.533771   577 net.cpp:409] inception_5a/output_inception_5a/output_0_split -> inception_5a/output_inception_5a/output_0_split_0
I0515 19:31:10.533778   577 net.cpp:409] inception_5a/output_inception_5a/output_0_split -> inception_5a/output_inception_5a/output_0_split_1
I0515 19:31:10.533787   577 net.cpp:409] inception_5a/output_inception_5a/output_0_split -> inception_5a/output_inception_5a/output_0_split_2
I0515 19:31:10.533793   577 net.cpp:409] inception_5a/output_inception_5a/output_0_split -> inception_5a/output_inception_5a/output_0_split_3
I0515 19:31:10.533864   577 net.cpp:144] Setting up inception_5a/output_inception_5a/output_0_split
I0515 19:31:10.533869   577 net.cpp:151] Top shape: 16 832 7 7 (652288)
I0515 19:31:10.533874   577 net.cpp:151] Top shape: 16 832 7 7 (652288)
I0515 19:31:10.533877   577 net.cpp:151] Top shape: 16 832 7 7 (652288)
I0515 19:31:10.533881   577 net.cpp:151] Top shape: 16 832 7 7 (652288)
I0515 19:31:10.533885   577 net.cpp:159] Memory required for data: 883476048
I0515 19:31:10.533887   577 layer_factory.hpp:77] Creating layer inception_5b/1x1
I0515 19:31:10.533905   577 net.cpp:94] Creating Layer inception_5b/1x1
I0515 19:31:10.533908   577 net.cpp:435] inception_5b/1x1 <- inception_5a/output_inception_5a/output_0_split_0
I0515 19:31:10.533915   577 net.cpp:409] inception_5b/1x1 -> inception_5b/1x1
I0515 19:31:10.536949   577 net.cpp:144] Setting up inception_5b/1x1
I0515 19:31:10.536967   577 net.cpp:151] Top shape: 16 384 7 7 (301056)
I0515 19:31:10.536970   577 net.cpp:159] Memory required for data: 884680272
I0515 19:31:10.536976   577 layer_factory.hpp:77] Creating layer inception_5b/relu_1x1
I0515 19:31:10.536983   577 net.cpp:94] Creating Layer inception_5b/relu_1x1
I0515 19:31:10.536988   577 net.cpp:435] inception_5b/relu_1x1 <- inception_5b/1x1
I0515 19:31:10.536993   577 net.cpp:396] inception_5b/relu_1x1 -> inception_5b/1x1 (in-place)
I0515 19:31:10.537001   577 net.cpp:144] Setting up inception_5b/relu_1x1
I0515 19:31:10.537006   577 net.cpp:151] Top shape: 16 384 7 7 (301056)
I0515 19:31:10.537009   577 net.cpp:159] Memory required for data: 885884496
I0515 19:31:10.537012   577 layer_factory.hpp:77] Creating layer inception_5b/3x3_reduce
I0515 19:31:10.537022   577 net.cpp:94] Creating Layer inception_5b/3x3_reduce
I0515 19:31:10.537042   577 net.cpp:435] inception_5b/3x3_reduce <- inception_5a/output_inception_5a/output_0_split_1
I0515 19:31:10.537050   577 net.cpp:409] inception_5b/3x3_reduce -> inception_5b/3x3_reduce
I0515 19:31:10.538877   577 net.cpp:144] Setting up inception_5b/3x3_reduce
I0515 19:31:10.538892   577 net.cpp:151] Top shape: 16 192 7 7 (150528)
I0515 19:31:10.538895   577 net.cpp:159] Memory required for data: 886486608
I0515 19:31:10.538915   577 layer_factory.hpp:77] Creating layer inception_5b/relu_3x3_reduce
I0515 19:31:10.538923   577 net.cpp:94] Creating Layer inception_5b/relu_3x3_reduce
I0515 19:31:10.538926   577 net.cpp:435] inception_5b/relu_3x3_reduce <- inception_5b/3x3_reduce
I0515 19:31:10.538935   577 net.cpp:396] inception_5b/relu_3x3_reduce -> inception_5b/3x3_reduce (in-place)
I0515 19:31:10.538944   577 net.cpp:144] Setting up inception_5b/relu_3x3_reduce
I0515 19:31:10.538947   577 net.cpp:151] Top shape: 16 192 7 7 (150528)
I0515 19:31:10.538951   577 net.cpp:159] Memory required for data: 887088720
I0515 19:31:10.538954   577 layer_factory.hpp:77] Creating layer inception_5b/3x3
I0515 19:31:10.538965   577 net.cpp:94] Creating Layer inception_5b/3x3
I0515 19:31:10.538969   577 net.cpp:435] inception_5b/3x3 <- inception_5b/3x3_reduce
I0515 19:31:10.538976   577 net.cpp:409] inception_5b/3x3 -> inception_5b/3x3
I0515 19:31:10.544790   577 net.cpp:144] Setting up inception_5b/3x3
I0515 19:31:10.544806   577 net.cpp:151] Top shape: 16 384 7 7 (301056)
I0515 19:31:10.544809   577 net.cpp:159] Memory required for data: 888292944
I0515 19:31:10.544816   577 layer_factory.hpp:77] Creating layer inception_5b/relu_3x3
I0515 19:31:10.544826   577 net.cpp:94] Creating Layer inception_5b/relu_3x3
I0515 19:31:10.544831   577 net.cpp:435] inception_5b/relu_3x3 <- inception_5b/3x3
I0515 19:31:10.544836   577 net.cpp:396] inception_5b/relu_3x3 -> inception_5b/3x3 (in-place)
I0515 19:31:10.544845   577 net.cpp:144] Setting up inception_5b/relu_3x3
I0515 19:31:10.544849   577 net.cpp:151] Top shape: 16 384 7 7 (301056)
I0515 19:31:10.544852   577 net.cpp:159] Memory required for data: 889497168
I0515 19:31:10.544857   577 layer_factory.hpp:77] Creating layer inception_5b/5x5_reduce
I0515 19:31:10.544867   577 net.cpp:94] Creating Layer inception_5b/5x5_reduce
I0515 19:31:10.544872   577 net.cpp:435] inception_5b/5x5_reduce <- inception_5a/output_inception_5a/output_0_split_2
I0515 19:31:10.544879   577 net.cpp:409] inception_5b/5x5_reduce -> inception_5b/5x5_reduce
I0515 19:31:10.545357   577 net.cpp:144] Setting up inception_5b/5x5_reduce
I0515 19:31:10.545367   577 net.cpp:151] Top shape: 16 48 7 7 (37632)
I0515 19:31:10.545370   577 net.cpp:159] Memory required for data: 889647696
I0515 19:31:10.545377   577 layer_factory.hpp:77] Creating layer inception_5b/relu_5x5_reduce
I0515 19:31:10.545383   577 net.cpp:94] Creating Layer inception_5b/relu_5x5_reduce
I0515 19:31:10.545387   577 net.cpp:435] inception_5b/relu_5x5_reduce <- inception_5b/5x5_reduce
I0515 19:31:10.545395   577 net.cpp:396] inception_5b/relu_5x5_reduce -> inception_5b/5x5_reduce (in-place)
I0515 19:31:10.545403   577 net.cpp:144] Setting up inception_5b/relu_5x5_reduce
I0515 19:31:10.545408   577 net.cpp:151] Top shape: 16 48 7 7 (37632)
I0515 19:31:10.545410   577 net.cpp:159] Memory required for data: 889798224
I0515 19:31:10.545413   577 layer_factory.hpp:77] Creating layer inception_5b/5x5
I0515 19:31:10.545424   577 net.cpp:94] Creating Layer inception_5b/5x5
I0515 19:31:10.545428   577 net.cpp:435] inception_5b/5x5 <- inception_5b/5x5_reduce
I0515 19:31:10.545433   577 net.cpp:409] inception_5b/5x5 -> inception_5b/5x5
I0515 19:31:10.546579   577 net.cpp:144] Setting up inception_5b/5x5
I0515 19:31:10.546589   577 net.cpp:151] Top shape: 16 128 7 7 (100352)
I0515 19:31:10.546592   577 net.cpp:159] Memory required for data: 890199632
I0515 19:31:10.546598   577 layer_factory.hpp:77] Creating layer inception_5b/relu_5x5
I0515 19:31:10.546604   577 net.cpp:94] Creating Layer inception_5b/relu_5x5
I0515 19:31:10.546608   577 net.cpp:435] inception_5b/relu_5x5 <- inception_5b/5x5
I0515 19:31:10.546633   577 net.cpp:396] inception_5b/relu_5x5 -> inception_5b/5x5 (in-place)
I0515 19:31:10.546653   577 net.cpp:144] Setting up inception_5b/relu_5x5
I0515 19:31:10.546659   577 net.cpp:151] Top shape: 16 128 7 7 (100352)
I0515 19:31:10.546667   577 net.cpp:159] Memory required for data: 890601040
I0515 19:31:10.546671   577 layer_factory.hpp:77] Creating layer inception_5b/pool
I0515 19:31:10.546679   577 net.cpp:94] Creating Layer inception_5b/pool
I0515 19:31:10.546682   577 net.cpp:435] inception_5b/pool <- inception_5a/output_inception_5a/output_0_split_3
I0515 19:31:10.546687   577 net.cpp:409] inception_5b/pool -> inception_5b/pool
I0515 19:31:10.546736   577 net.cpp:144] Setting up inception_5b/pool
I0515 19:31:10.546742   577 net.cpp:151] Top shape: 16 832 7 7 (652288)
I0515 19:31:10.546746   577 net.cpp:159] Memory required for data: 893210192
I0515 19:31:10.546749   577 layer_factory.hpp:77] Creating layer inception_5b/pool_proj
I0515 19:31:10.546759   577 net.cpp:94] Creating Layer inception_5b/pool_proj
I0515 19:31:10.546764   577 net.cpp:435] inception_5b/pool_proj <- inception_5b/pool
I0515 19:31:10.546772   577 net.cpp:409] inception_5b/pool_proj -> inception_5b/pool_proj
I0515 19:31:10.548368   577 net.cpp:144] Setting up inception_5b/pool_proj
I0515 19:31:10.548383   577 net.cpp:151] Top shape: 16 128 7 7 (100352)
I0515 19:31:10.548388   577 net.cpp:159] Memory required for data: 893611600
I0515 19:31:10.548394   577 layer_factory.hpp:77] Creating layer inception_5b/relu_pool_proj
I0515 19:31:10.548401   577 net.cpp:94] Creating Layer inception_5b/relu_pool_proj
I0515 19:31:10.548405   577 net.cpp:435] inception_5b/relu_pool_proj <- inception_5b/pool_proj
I0515 19:31:10.548413   577 net.cpp:396] inception_5b/relu_pool_proj -> inception_5b/pool_proj (in-place)
I0515 19:31:10.548422   577 net.cpp:144] Setting up inception_5b/relu_pool_proj
I0515 19:31:10.548426   577 net.cpp:151] Top shape: 16 128 7 7 (100352)
I0515 19:31:10.548429   577 net.cpp:159] Memory required for data: 894013008
I0515 19:31:10.548434   577 layer_factory.hpp:77] Creating layer inception_5b/output
I0515 19:31:10.548439   577 net.cpp:94] Creating Layer inception_5b/output
I0515 19:31:10.548442   577 net.cpp:435] inception_5b/output <- inception_5b/1x1
I0515 19:31:10.548447   577 net.cpp:435] inception_5b/output <- inception_5b/3x3
I0515 19:31:10.548450   577 net.cpp:435] inception_5b/output <- inception_5b/5x5
I0515 19:31:10.548455   577 net.cpp:435] inception_5b/output <- inception_5b/pool_proj
I0515 19:31:10.548462   577 net.cpp:409] inception_5b/output -> inception_5b/output
I0515 19:31:10.548488   577 net.cpp:144] Setting up inception_5b/output
I0515 19:31:10.548494   577 net.cpp:151] Top shape: 16 1024 7 7 (802816)
I0515 19:31:10.548497   577 net.cpp:159] Memory required for data: 897224272
I0515 19:31:10.548501   577 layer_factory.hpp:77] Creating layer pool5/7x7_s1
I0515 19:31:10.548509   577 net.cpp:94] Creating Layer pool5/7x7_s1
I0515 19:31:10.548513   577 net.cpp:435] pool5/7x7_s1 <- inception_5b/output
I0515 19:31:10.548519   577 net.cpp:409] pool5/7x7_s1 -> pool5/7x7_s1
I0515 19:31:10.548545   577 net.cpp:144] Setting up pool5/7x7_s1
I0515 19:31:10.548552   577 net.cpp:151] Top shape: 16 1024 1 1 (16384)
I0515 19:31:10.548554   577 net.cpp:159] Memory required for data: 897289808
I0515 19:31:10.548557   577 layer_factory.hpp:77] Creating layer pool5/drop_7x7_s1
I0515 19:31:10.548564   577 net.cpp:94] Creating Layer pool5/drop_7x7_s1
I0515 19:31:10.548568   577 net.cpp:435] pool5/drop_7x7_s1 <- pool5/7x7_s1
I0515 19:31:10.548575   577 net.cpp:396] pool5/drop_7x7_s1 -> pool5/7x7_s1 (in-place)
I0515 19:31:10.548597   577 net.cpp:144] Setting up pool5/drop_7x7_s1
I0515 19:31:10.548604   577 net.cpp:151] Top shape: 16 1024 1 1 (16384)
I0515 19:31:10.548606   577 net.cpp:159] Memory required for data: 897355344
I0515 19:31:10.548610   577 layer_factory.hpp:77] Creating layer loss3/classifier
I0515 19:31:10.548616   577 net.cpp:94] Creating Layer loss3/classifier
I0515 19:31:10.548635   577 net.cpp:435] loss3/classifier <- pool5/7x7_s1
I0515 19:31:10.548658   577 net.cpp:409] loss3/classifier -> loss3/classifier
I0515 19:31:10.548785   577 net.cpp:144] Setting up loss3/classifier
I0515 19:31:10.548792   577 net.cpp:151] Top shape: 16 3 (48)
I0515 19:31:10.548795   577 net.cpp:159] Memory required for data: 897355536
I0515 19:31:10.548817   577 layer_factory.hpp:77] Creating layer loss3/classifier_loss3/classifier_0_split
I0515 19:31:10.548823   577 net.cpp:94] Creating Layer loss3/classifier_loss3/classifier_0_split
I0515 19:31:10.548827   577 net.cpp:435] loss3/classifier_loss3/classifier_0_split <- loss3/classifier
I0515 19:31:10.548832   577 net.cpp:409] loss3/classifier_loss3/classifier_0_split -> loss3/classifier_loss3/classifier_0_split_0
I0515 19:31:10.548840   577 net.cpp:409] loss3/classifier_loss3/classifier_0_split -> loss3/classifier_loss3/classifier_0_split_1
I0515 19:31:10.548878   577 net.cpp:144] Setting up loss3/classifier_loss3/classifier_0_split
I0515 19:31:10.548884   577 net.cpp:151] Top shape: 16 3 (48)
I0515 19:31:10.548887   577 net.cpp:151] Top shape: 16 3 (48)
I0515 19:31:10.548890   577 net.cpp:159] Memory required for data: 897355920
I0515 19:31:10.548894   577 layer_factory.hpp:77] Creating layer loss3/loss
I0515 19:31:10.548900   577 net.cpp:94] Creating Layer loss3/loss
I0515 19:31:10.548904   577 net.cpp:435] loss3/loss <- loss3/classifier_loss3/classifier_0_split_0
I0515 19:31:10.548909   577 net.cpp:435] loss3/loss <- label_val-data_1_split_4
…
